P2/agent_2_policy.pth (torch, 22953 bytes, 6 tensors)

network.0.weight f4 [64, 5]
00000000: 05b6 7f3e 315d 25be 2481 31be 9202 c33e
00000010: 61ac e5be 9076 d93e 208f 04be 972c c3be
00000020: 4cd7 98be 28a2 dcbd 7ef1 963e fdce 5dbe
00000030: 2228 5cbe 62f9 a6be d30c a6be b6ca c53c
00000040: abc0 9b3e e877 81be ef33 0bbd 3e98 8fbe
00000050: d0bd 7cbd 88fd fc3d 2843 8f3e 0cbe 693e
00000060: 0826 983e 00ef 1dbb 142c d83e dafd 983e
00000070: b048 8c3c d87f 953e 07cf c1be 48af 46bd
00000080: 36b1 67be 74f3 7b3e 589a 4e3d 70e6 113d
00000090: 139c 9bbe 4836 d83d 2ec3 d9be a013 7d3c
000000a0: acf8 1bbe cd14 94be 20d6 c33d f6d6 a43e
000000b0: 2a9f 4ebe ac57 843c 90df ccbe 41c8 933e
000000c0: cb3e d03e 1928 d4bd 2c80 df3e aad8 933e
000000d0: 7376 1d3e 08b7 bdbe a590 1c3e efcb e33e
000000e0: 67fe 273e 2cb1 333e 90a2 2f3e 5338 283e
000000f0: 90a4 273e 7406 063e ec46 0e3e d09d 9a3d
00000100: 1c89 913e d15f 39be 38d4 a1bd 7c51 4f3e
00000110: 6604 3abe 97e2 9bbe 3af3 c53e d283 d8be
00000120: d0c5 87be 9a8f 9abe b244 b33e 90ed a33e
00000130: 98f1 b23e 88b5 53bd 1eb5 e43e 7097 243e
00000140: 4e31 e63e f947 19be 38ec bebe 608c ed3d
00000150: 3984 e63e 4080 9d3e 987d af3d c028 253c
00000160: 4601 903e 8ec8 dc3e 80bc 0bbd 70e6 9abc
00000170: 081b 49be e083 223c b631 40be ba1d c0be
00000180: 791c acbe c8db 84bc d7d0 d2be 5161 b83e
00000190: 88bb 1d3e a25c af3e 46af 2ebe 62a8 8abe
000001a0: 9812 1dbd deb1 b1bd 641d d2be 7d71 b53e
000001b0: ba50 e2be fd8a b63e bc2a 973e 02e8 7cbe
000001c0: 9e87 c3be 8038 1bbb c079 393e c43b 13be
000001d0: 8629 283e e2f7 973e c409 c4be e2cc 783e
000001e0: 11c2 adbe 6029 8a3d c3e5 b13e 8a03 d8be
000001f0: 6ac7 3abe 1053 febc 90dd 5d3d a40e 573e
00000200: 924e 12be 207b 253e 8aba c4be 88ad 9a3e
00000210: b6a4 8dbe e888 353e d065 673e 7524 c0be
00000220: 9cf2 4e3e 18a2 62be 6027 1cbe 10d5 bfbd
00000230: 9086 b33e f4b9 8cbe 3ad0 62be 98dd a5bd
00000240: 4cf2 d9be 3aee 9a3e 50cc 543e aaf6 adbe
00000250: d05b 54be 5f2b d0be 9da6 81be d078 083e
00000260: 180d 863d 20e1 af3d 480b e33d 1ab0 b33e
00000270: e020 92bc c54f d9be 45f1 e3be be1a b3be
00000280: bdf2 b9be 142f b4be cf48 97bc 7d38 973d
00000290: f668 77be 005a 443b b1ec c4be f89b ac3e
000002a0: 24e8 8b3e 11cb b1be 8297 c0be 3cd9 d03e
000002b0: db87 1c3e 878b 1dbe d993 3cbe 1c62 bf3e
000002c0: 00d2 7bbd 463b b6be 4a02 d83e e0ab 2abe
000002d0: 9f32 2bbd 9db7 7ebd 35fe d9bc a21b 51bd
000002e0: a11f 903e 9f07 60be 12e3 9dbe 2e31 903e
000002f0: 061a a73d 80a5 503e 10f4 993e 40ef b53e
00000300: faad e4be e069 9dbc 7c31 5e3e 9881 993d
00000310: 0619 1bbe eebb e3be db94 97be e00c 6f3d
00000320: 0d46 c1be 3e11 c73e 2ebb dc3e a894 883e
00000330: cfd1 5d3c 10cf 1f3e 1b1a c1be 4dc1 353e
00000340: 65dd 633e a005 ac3c 2434 37be 74b7 e8bd
00000350: 8eaf 8bbe 00b8 19ba da06 c73e e610 18be
00000360: f4bf c53e 1496 4f3e cc7b e8bd 2193 79be
00000370: d99e 7d3d 3af9 523e 407e 95be ce84 95be
00000380: 47a1 7ebe 757f cabe d649 cf3e 286f 6e3e
00000390: d30a c73d 7b68 523e c433 403e 1050 e03e
000003a0: d32f e1be 7c58 51be 2e29 14be 861a d0be
000003b0: be90 afbe b4b2 5dbe 4f57 b5be 2061 fabc
000003c0: 52ef 7e3d 12b3 843e ee4d dd3e 4021 8fbd
000003d0: 6329 7f3e 8b42 c8be b3c8 ab3e f67f bf3c
000003e0: 5b9b aa3e 6c39 f23d 8c5a 263d 0415 1f3e
000003f0: 89be d13e 1b10 c3be e5a6 ab3e 4d1e b13c
0.24971779 -0.16148831 -0.1733442 0.38087898 -0.44858077 0.42473269 -0.12945223 -0.38119957
-0.29851758 -0.10773116 0.2948112 -0.21660991 -0.21499684 -0.3261214 -0.3243166 0.024144512
0.30420431 -0.25286794 -0.033985075 -0.2804584 -0.061704457 0.12353045 0.27980924 0.22826403
0.29716516 -0.0024098754 0.4222113 0.29881173 0.017124504 0.291991 -0.37853262 -0.048507005
-0.22626194 0.24604589 0.050440162 0.035620153 -0.30392513 0.10557228 -0.42531723 0.0154465735
-0.1523158 -0.2892212 0.095623255 0.32195252 -0.20177904 0.016155086 -0.40014315 0.2886372
0.40672907 -0.103592105 0.43652475 0.2887624 0.15377216 -0.37053704 0.15289553 0.44491526
0.1640564 0.17548054 0.17151856 0.16427736 0.1637137 0.13088399 0.13894242 0.075496316
0.2842492 -0.18102957 -0.07901806 0.20245928 -0.1816574 -0.30446312 0.3866213 -0.4228807
-0.26518106 -0.30187684 0.35013348 0.32017183 0.34949946 -0.051686794 0.4466943 0.16073394
0.44959491 -0.14968862 -0.37289596 0.1159904 0.45022753 0.3076191 0.08568877 0.010080516
0.28125972 0.4312176 -0.034115314 -0.01890871 -0.19639218 0.009919137 -0.18768963 -0.3752268
-0.33615473 -0.016218081 -0.41174957 0.36011747 0.15403569 0.3425036 -0.17059049 -0.2708159
-0.03834781 -0.086765036 -0.41038048 0.35438147 -0.44202214 0.35652915 0.2952479 -0.24697879
-0.38189405 -0.00236848 0.1811285 -0.14378268 0.1642209 0.29681307 -0.382887 0.24296907
-0.33937123 0.06746173 0.34745607 -0.421902 -0.18240133 -0.031045467 0.054166377 0.21001679
-0.14287785 0.1616025 -0.38423568 0.3021052 -0.27664727 0.17728007 0.22597432 -0.37527815
0.20209736 -0.22132146 -0.15249395 -0.0936681 0.350636 -0.2748562 -0.22149745 -0.08098906
-0.4256767 0.30259877 0.20781064 -0.33977252 -0.20738149 -0.4065809 -0.25322428 0.13327336
0.06545466 0.08587861 0.11086136 0.35095292 -0.017837942 -0.42443672 -0.44520012 -0.3498134
-0.36318007 -0.35192168 -0.018467335 0.07383821 -0.24161133 0.002996087 -0.3846183 0.33712745
0.27325547 -0.3472524 -0.3761559 0.40790737 0.152862 -0.15385257 -0.18415774 0.3737954
-0.06147957 -0.35592097 0.42189246 -0.16667128 -0.041796323 -0.062186826 -0.026610473 -0.051051743
0.2814913 -0.21877907 -0.30837303 0.2816252 0.081592605 0.20375633 0.30069017 0.35534096
-0.44663984 -0.019215524 0.21698564 0.07495421 -0.15146264 -0.44479316 -0.29605755 0.058361888
-0.37748757 0.38880342 0.43111557 0.26675916 0.013538792 0.15606332 -0.3771523 0.1774952
0.22252424 0.020998776 -0.17890984 -0.11363116 -0.27282375 -0.0005863905 0.38872415 -0.14850196
0.3862301 0.20272094 -0.113517374 -0.24372531 0.061919067 0.20602885 -0.29197884 -0.29202884
-0.2486621 -0.39550367 0.4048602 0.2328459 0.097188614 0.20547669 0.18769747 0.43811083
-0.439818 -0.2044391 -0.14468834 -0.40645236 -0.34290117 -0.21650201 -0.35418174 -0.030563891
0.062239952 0.2591787 0.43223518 -0.06988764 0.24918132 -0.39113268 0.3355156 0.023376446
0.33321652 0.118273586 0.040613696 0.1553536 0.4096568 -0.38098225 0.33525768 0.021620894

network.0.bias f4 [64]
00000000: 6c74 813e d824 18bd deac 90be 176a 4e3e
00000010: 22ec aebe a720 c2be 8d26 d6be 9008 a73c
00000020: 64fc 98be 7793 e53d ecee a13e 79c4 a83e
00000030: dc6b 97bd 4fca 263d 78da 38bd 486c 19be
00000040: 05b2 b43e 3afc e0be 5021 43be b5b7 a33e
00000050: 646d 6fbe 3eea 443e 48cb 98bd 6ee7 473e
00000060: c6ff 153e e8db e1bd f59d 51be ea39 9cbe
00000070: 254b 9cbe df66 a83e 949a cfbe ef63 96be
00000080: cd63 903d 8eb1 72be 1f18 0c3e b3e2 60be
00000090: 2e5a 603e af7f e33c 98d9 22bd 5701 7bbe
000000a0: ecd2 40bd 3442 953e 6ea3 e1be 408f 30bc
000000b0: 82d0 a53e a5c9 32bd d8ff 5bbe c958 b7be
000000c0: 8e29 343e 61a9 393d b91e 973e 9cba d13e
000000d0: 5b75 33bb 5422 1abe 3adc 9d3e e944 ce3e
000000e0: 200a 5dbc 1f77 5f3e 2aff 9a3d f093 f83c
000000f0: 5dbf d23c bced e9bd 27d9 cc3e 2760 c8be
0.25284135 -0.037144512 -0.28256887 0.20157658 -0.3416453 -0.37915537 -0.41826287 0.020389825
-0.2988006 0.11209767 0.31627595 0.32962397 -0.073936194 0.04072028 -0.045130223 -0.14982712
0.35292068 -0.43942434 -0.19055676 0.31976095 -0.23381573 0.19229981 -0.07460648 0.19521877
0.14648351 -0.11028272 -0.20470412 -0.30512935 -0.3052608 0.32890984 -0.4054762 -0.29373118
0.070502855 -0.23700544 0.13681076 -0.21961479 0.21909401 0.027770845 -0.039758295 -0.2451223
-0.04707615 0.2915207 -0.4407 -0.010776341 0.3238564 -0.043649334 -0.21484315 -0.35809925
0.17593977 0.045327548 0.29515627 0.40962684 -0.0027383182 -0.15052158 0.30832082 0.4028695
-0.0134911835 0.21822785 0.075682 0.03034398 0.025726015 -0.11422297 0.40009424 -0.39135858

network.2.weight f4 [64, 64]
00000000: b9c6 bfbd 2afb fabd b855 d5bc b8a2 f3bb
00000010: 8046 eabc 404f 2bbc 0cbc eabd f0d5 b63c
00000020: 0099 b33a e510 99bd bca4 de3d 0834 8e3c
00000030: 5213 f4bd aa31 c7bc 3a0e e93d 907c 813d
00000040: 6860 cfbc bc19 203d 2a60 e03d 78d5 553d
00000050: a2e7 c63d 120c a1bd 80ea 94bb 24a7 c83d
00000060: ca50 40bd f897 df3c f0c9 653c e07b 393d
00000070: 8436 2d3d 1beb 8ebd e006 bdbc 5006 0ebd
00000080: 5553 88bd e011 a4bb fee9 93bd 9ca7 fb3d
00000090: 200d fe3d 7c9d 9abd 2e1c 90bd 621e be3d
000000a0: 7645 09bd 73d0 9fbd 3e7d cabd 38ec 9b3d
000000b0: 056d 58bd 3880 173d ac9f b4bd 1017 a43c
000000c0: 22ef 833d f705 d23c 8062 eeb9 a187 913d
000000d0: 035f debd 4060 33bb 6e02 d33d 8298 0b3d
000000e0: 34ca 543d bbc9 93bd ca2a c73d e2c4 fa3d
000000f0: ba5d 49bb 582b 3a3d 7286 d3bd 884c e63d
00000100: 40e5 e5bb 18a5 353d c492 9fbd 6015 6fbc
00000110: f823 233d 549d b33d a86d edbc a8b1 39bd
00000120: 3087 50bc 3091 963c c05e 13bd d6e6 b33d
00000130: a097 17bd 585e ebbd a83c e5bd 9068 79bc
00000140: 0e03 8bbd 8c91 f0bd 90b1 babd e009 c53b
00000150: 98f0 d13d 98e5 fa3d 7e75 c1bd 766f 87bd
00000160: d429 113d 9493 4b3d 70e3 f7bd 341a d03d
00000170: f0de 553c 30a1 9dbc 4e4c 8fbd 4ae0 8bbd
00000180: 601a fdbc 1c60 41bd 7c07 1fbd 026c b73d
00000190: 185c e5bd b0e8 5fbd e814 96bc e8e5 cdbd
000001a0: 9c17 dc3d f843 8bbd 06b1 ef3d e8a1 d63d
000001b0: 36b1 a5bd fe93 febd 3a00 a13d 102c dcbd
000001c0: 8053 893a f0b2 6bbc dee1 f7bd 047c 403d
000001d0: 986f c93c dec3 bebd e8ad 5e3d 289e bd3d
000001e0: 8cf8 0abd 9099 0a3d c05f 173b 803a a2bb
000001f0: c889 99bc e062 0b3d d01b 40bd f09b f0bd
00000200: a46b ddbd 6e7e c5bd 6a6e 98bd a86d 783d
00000210: 281d c53c a211 b43d 4887 acbd 9aec f8bd
00000220: 6207 df3d 0095 4dbc ee8c c13d 108d acbd
00000230: 6a7e d43d e0d2 14bd 8c61 98bd 1c45 4ebd
00000240: a0ec 1f3d 6cf5 31bd 3068 5c3c e8c7 d23c
00000250: 3c23 84bd 40e9 3f3d 6032 c4bd f0fd 04bc
00000260: 6c1f 5abd c0ba 94bb febe b1bd 688a ecbd
00000270: 84f7 e3bd 20b4 6a3d f421 ff3d 742c 06bd
00000280: 705f c4bc 9a7c 963d dc2d dc3d b6eb bb3d
00000290: 88fe b0bd 0000 2bbd e0b9 b1bd 6a1f b33d
000002a0: 6ae5 fdbd 6860 863d 9095 633d 365f 843d
000002b0: 28da aa3c 7e62 823d 8cf0 4abd 44a6 a83d
000002c0: 1225 9e3d a471 bd3d d4c2 35bd 5c5a 713d
000002d0: 1213 8dbd 3c8c 96bd 6035 16bd 4c31 1bbd
000002e0: 2c9c 10bd e4af b8bd 0888 fa3d 7891 b8bd
000002f0: f03e d6bd aed5 c1bd 42e0 a4bd 80df 743b
00000300: 2e55 ccbd eca7 5cbd b82b f1bc ec9b 7abd
00000310: 9488 403d 00df e0ba 58f2 25bd 701c c2bd
00000320: dc29 dfbd 185a 80bc 3a2c e1bd 8229 b43d
00000330: fcaf 3a3d 9e0a 97bd f0b7 1d3d e885 d23c
00000340: b0be 5abc 88e9 493d 1037 e33d 70c0 ee3d
00000350: ac70 8e3d f4d7 ecbd a0b6 893b 40c1 5dbc
00000360: cca0 4d3d 5c5d aebd 72b8 a5bd be6c 883d
00000370: f802 3bbd 6c3f 4cbd fed5 863d 48be d83c
00000380: fc99 a7bd ccac 573d c011 ce3c b80a 3fbd
00000390: cebc e1bd 5432 563d 50be 18bd 7234 973d
000003a0: fe63 ee3d 54e3 19bd 6c4a 593d 4c39 db3d
000003b0: b072 3b3d fa2e 97bd bcc5 2ebd 3a09 d13d
000003c0: 2848 d4bd f09d 2abd 504d 5fbc 046c ebbd
000003d0: d6cf e83d ea00 d7bd a29d e73d 961a 81bd
000003e0: a8eb e9bd 04e3 183d f429 03bd 4ea2 bf3d
000003f0: f426 45bd c44f acbd c07d 62bd be3a d6bd
-0.09364075 -0.12254937 -0.02604185 -0.007435169 -0.02859807 -0.010455906 -0.11461648 0.02231881
0.0013702214 -0.074739255 0.10871264 0.017358795 -0.119177476 -0.024315674 0.113796666 0.063225865
-0.025314525 0.039087042 0.10955842 0.052205533 0.09712149 -0.0786363 -0.004544556 0.097975045
-0.046952046 0.027294144 0.014025196 0.045284152 0.04228832 -0.069784366 -0.023074567 -0.03467399
-0.06656519 -0.0050070137 -0.07222365 0.12287828 0.12404847 -0.07549569 -0.07036625 0.09283139
-0.03351351 -0.078034304 -0.09887169 0.076134145 -0.052838344 0.036987513 -0.088195175 0.020030528
0.06442095 0.02563761 -0.00045468286 0.07105947 -0.10857966 -0.0027370602 0.10303198 0.03408099
0.05195065 -0.072162114 0.09724958 0.12244584 -0.0030726031 0.045451492 -0.10328378 0.11245066
-0.007015854 0.0443469 -0.07791665 -0.014592499 0.039829224 0.08770242 -0.028982952 -0.04533544
-0.012727544 0.018379778 -0.035979033 0.08784263 -0.037009835 -0.11492604 -0.1119321 -0.015222684
-0.06787692 -0.11746511 -0.091158986 0.00601314 0.10250968 0.12250823 -0.09446238 -0.06613056
0.03544028 0.04970129 -0.12103927 0.10161248 0.013053641 -0.0192419 -0.06996976 -0.06829889
-0.030896366 -0.047210798 -0.038825497 0.08956148 -0.11199206 -0.054665267 -0.018320516 -0.10053617
0.10746691 -0.068000734 0.117036864 0.104801 -0.08090441 -0.12430571 0.07861371 -0.10750592
0.0010477155 -0.014385924 -0.121036276 0.04699327 0.024589345 -0.093147025 0.05436507 0.092586815
-0.03392844 0.033837855 0.0023097843 -0.0049508214 -0.018742457 0.03402984 -0.046901524 -0.11748493
-0.108115464 -0.09643255 -0.07442935 0.06065145 0.024061754 0.08792426 -0.0842424 -0.12154503
0.1089008 -0.012547731 0.09450708 -0.08425343 0.10375674 -0.03633392 -0.074404806 -0.050358877
0.039044023 -0.043446943 0.013452575 0.025730088 -0.06452033 0.046853304 -0.09579921 -0.008117184
-0.053252622 -0.004538864 -0.08679007 -0.115498364 -0.11131194 0.057300687 0.12457648 -0.032757238
-0.02397129 0.073479846 0.107509345 0.09175818 -0.08642298 -0.041748047 -0.08678031 0.08746226
-0.12397273 0.06561357 0.055562556 0.064634725 0.020855978 0.06366442 -0.04954581 0.08234838
0.07721914 0.09250191 -0.044375256 0.058924064 -0.06888403 -0.07350966 -0.036671996 -0.03788881
-0.035305187 -0.090179235 0.12232977 -0.09012121 -0.10461223 -0.09464584 -0.08050586 0.0037364662
-0.09977184 -0.05387108 -0.029439792 -0.061183855 0.04700525 -0.0017156303 -0.04051432 -0.0947808
-0.10896656 -0.01566796 -0.10994764 0.087969795 0.045577988 -0.07375072 0.038505495 0.025698617
-0.0133511275 0.04929498 0.11094487 0.11657798 0.06955084 -0.11564627 0.004202679 -0.013534844
0.050202176 -0.08513901 -0.08091821 0.06661366 -0.045657128 -0.04986517 0.065837845 0.02645792
-0.08183667 0.052655026 0.025154948 -0.04664108 -0.1102234 0.05229409 -0.03729087 0.0738305
0.11640166 -0.037570313 0.05304949 0.10704288 0.04576367 -0.07382007 -0.042669043 0.10206838
-0.10365325 -0.041654527 -0.013629273 -0.11495212 0.113677666 -0.10498221 0.11309363 -0.06303899
-0.11421901 0.037325874 -0.03202243 0.09357129 -0.04813285 -0.084136516 -0.055295706 -0.10460423

network.2.bias f4 [64]
00000000: 37fb fb3d ac00 f5bd b249 fbbd 94fa 9abd
00000010: 3e8b 8abd 165b c7bd 16bc 5b3d 6ea9 b93d
00000020: a055 453c 90fd c1bd b09b 453c 60f1 acbc
00000030: ba5a 84bd c445 76bd 50c2 5c3c 2fdd 89bd
00000040: 1711 893c 7fe4 db3d 7408 813d a9a9 02bc
00000050: 28d4 2bbd 0234 ba3d 9227 ccbd dc3a be3d
00000060: e2aa 7d3d 369a a93d 510b 66bd 101a c7bd
00000070: f8de c3bd 8e92 66bc de2f cc3d 386c a63c
00000080: d836 e0bd 0084 1f3c e8b7 bfbd b0df dcbd
00000090: 90f5 6ebc 275a 64bd d456 32bd 9adb b1bd
000000a0: c04a 7cbd fef7 82bd d426 b53d 6015 7f3c
000000b0: 6476 f6bd aa6f a63d 9848 81bd ab58 d13d
000000c0: b32f c03d 9f6c 803c f991 8d3d 0d9c ec3d
000000d0: 3eb4 b3bd 0741 893d 8843 5e3d f257 713c
000000e0: 6ca1 10bc 088b e9bd d5e0 1f3d 7a98 033c
000000f0: dab0 a0bd 384c d43c 307b 163d 5914 e5bb
0.12303775 -0.11963019 -0.12269916 -0.07567325 -0.067648396 -0.0973417 0.05364617 0.09065519
0.01204434 -0.09472191 0.012061045 -0.02111119 -0.06462617 -0.060125127 0.013474062 -0.067316405
0.016731782 0.107369415 0.063004404 -0.00797502 -0.041950375 0.09091951 -0.09968485 0.0928857
0.061930545 0.082813665 -0.056163136 -0.09721768 -0.09564012 -0.014073027 0.099700674 0.020315275
-0.109479606 0.009736061 -0.09361249 -0.107848525 -0.014584914 -0.05575004 -0.043539837 -0.08684464
-0.061594725 -0.06394957 0.088452965 0.015569061 -0.120343 0.08126767 -0.06312674 0.1022199
0.09384098 0.015676795 0.06912608 0.11553202 -0.08774613 0.06701856 0.05426362 0.01473044
-0.0088275485 -0.11403471 0.039032776 0.008031959 -0.07846232 0.02591525 0.036738575 -0.006990951

network.4.weight f4 [6, 64]
00000000: e5cf 973d 4afe a4bd a41c 583d 3895 4ebd
00000010: e87b a43d 5077 c6bc d891 3ebd fd73 293d
00000020: 2c0c 083d 20a3 363c 20c4 a53d 94c8 6b3d
00000030: eee3 f1bd c2c8 cf3d 543f 533d 54b1 e93d
00000040: 3e54 98bd 26eb c4bd 7764 a5bd 0781 7cbc
00000050: ba5b a0bd 4c81 02be 0272 fc3d 9aba ef3d
00000060: 0b48 ffbd 3197 a03d 3ad5 eb3d c409 1d3d
00000070: b49d f23d a350 363d f3b8 943d cce5 263d
00000080: 248c a63d e80a 9bbc 7092 c13c 182f 21bd
00000090: 1491 88bd 603b afbb 6091 ce3b 803c 1dbb
000000a0: 9a97 f0bd 8ff3 343c 7968 9e3d c413 af3d
000000b0: 2063 7b3d 4861 dc3d 4ce4 8c3d 76bc dc3d
000000c0: 9353 1e3d 9d50 a63c 03e7 3d3d 9e2d 9a3d
000000d0: f81e f53c 36cd d73d 7f5f fabc 2b8d fbbd
000000e0: 68f2 fbbd 2a62 b8bd 0cb0 c03d 71b6 afbd
000000f0: 745d e73d 9ef2 933d 902d 7e3d ed8a 8b3d
00000100: 2b58 c4bc 00eb eb3c 4871 9d3c 300b ddbd
00000110: 88db edbc 0087 27bd 823d 6ebd 71b4 a23d
00000120: 28ee adbc f451 1b3d e0e0 413c de7e 833d
00000130: 90c1 643d e8d1 52bd cced e93d 5e20 20bc
00000140: 2357 c9bd 8d29 803d dc92 d6bd 4f3e aa3d
00000150: f081 513c 8f8e 35bc 48e9 c8bd 282b 8fbd
00000160: dedc 1dbc 811b 17bd 8a07 f93b 34f5 4abd
00000170: 68bb 713d bbb5 ee3d 4ae7 cebd b425 9dbd
00000180: 00e4 053b 90c8 d63d f0ca bc3c 0493 9c3d
00000190: ccb8 b0bd fd6c fb3d 804e e83d d0f4 fe3d
000001a0: b444 1f3d 226b e3bd 0807 f83c 4410 263d
000001b0: 7865 a0bc eb45 d7bd b6e3 a13d c119 983d
000001c0: fef6 48bd 4960 bdbd 3e5e e9bd decb aa3d
000001d0: 800c 5fbc bc78 adbd 0e38 ebbb 5ddb 1f3d
000001e0: 12bf 893d 9809 693d aa58 7e3d 4dd3 b33d
000001f0: e84c 91bc 50f6 6e3c 5804 24bd dd38 8abd
00000200: e045 5e3d d832 7ebd 6a1d bf3d c2fd febd
00000210: 34af 78bd ecf5 993d fc24 933b 6e0d b13b
00000220: 906d 0e3d 1a86 e73d 78bc 2e3d b8ac 8d3c
00000230: 0084 123d d8e0 d03c 38cc 5c3d 9fdb b93c
00000240: a6d9 f33d 3794 5d3d b372 8ebd 3a01 5dbc
00000250: 7867 fe3c 5131 1bbd be05 ffbd b0ea debc
00000260: 40f3 b93d 0421 84bc 139b 983d 9015 26bc
00000270: 56e2 be3d 13d6 99bd 0313 d1bd 9c13 bb3d
00000280: 9443 693d 70bd 9b3c 0854 89bc c868 f83c
00000290: a03c 93bb baa6 863d 945c d7bd c24a f5bd
000002a0: 74ee 6dbd 0050 4f3c b4d2 f13d 80f5 813d
000002b0: 6adf e0bd c5a2 d5bd a0f1 f2bd dea7 e23c
000002c0: beaa 15bd 7c64 1e3d 7215 90bd 6feb 863d
000002d0: 2c90 aabd 8336 acbd 8674 7a3b be17 b63d
000002e0: ba96 6cbc 70fc 00bd 2325 81bd bdea e9bd
000002f0: 300b 2a3d 44ad 4a3d 001a c53d d9e3 8b3d
00000300: f87b d6bc 9c05 7ebd 3057 5abc 682b 7d3d
00000310: b488 623d 821b c6bd 953f 983d 6122 c73c
00000320: 92e0 e1bd 8011 9d3d 5042 2cbc 065a b73d
00000330: fcc1 6bbd 9063 1dbd 9cbc 11bd 7788 bebd
00000340: 8697 dd3b 933a ca3d 01c5 e63c 062b 60bc
00000350: 96b4 a93d f345 c83c 340c 0d3d 1f9a 043d
00000360: 971c bd3d d1b8 aabd 1adf 833d a465 bcbd
00000370: a0de a6bd 9997 e4bd dc05 b4bd c09f f2bc
00000380: ec34 b53d 548b 343d 64cd afbd ecfb febd
00000390: b2ec eebd e710 d13d 2025 c73b 0e41 c93d
000003a0: d0a3 b83d e10b 04bd 89db c1bd fa58 b7bd
000003b0: c099 2cbc 81ee aa3d f2d1 fabd 8423 62bc
000003c0: b566 3ebd ba34 943c f45c 203d eebc 49bd
000003d0: 2251 db3d 3e3c 093d 1d26 8b3c a4cd 0fbd
000003e0: 613f d6bd b6f8 a7bd 3e86 fbbd da88 4f3d
000003f0: 662e 933d 6635 e03d 0e89 b5bd 0d19 e33c
0.074126996 -0.08056314 0.05276169 -0.050435275 0.08031446 -0.024226815 -0.046525806 0.04137038
0.033214733 0.0111472905 0.080940485 0.057564333 -0.11811052 0.101457134 0.051574066 0.11410776
-0.07437943 -0.096151635 -0.08075803 -0.015411622 -0.078299955 -0.12744635 0.12326433 0.11705513
-0.12464913 0.078413375 0.11515279 0.03833939 0.11846486 0.044510495 0.07261839 0.040746495
0.081321985 -0.018926099 0.023629397 -0.039351553 -0.066682965 -0.005347654 0.006303951 -0.002399236
-0.11747666 0.011044397 0.0773477 0.08548692 0.06137383 0.107607424 0.06879482 0.107781336
0.03865392 0.020302111 0.046362888 0.07528232 0.029921994 0.10537188 -0.030563114 -0.12282785
-0.12302095 -0.09003098 0.09408578 -0.0857972 0.11297122 0.0722401 0.06205517 0.06813607
-0.023967823 0.02879858 0.019219056 -0.107931495 -0.029035345 -0.04090023 -0.058164127 0.07944573
-0.021231726 0.037919953 0.0118333995 0.06420682 0.055848658 -0.051469713 0.11422309 -0.009773342
-0.09831073 0.06257925 -0.1047723 0.08312666 0.012787327 -0.011081352 -0.0981012 -0.06990653
-0.009635178 -0.036891464 0.0075997757 -0.04955025 0.059016615 0.11655756 -0.10102709 -0.07673207
0.0020430088 0.10487473 0.023045987 0.076452285 -0.08628997 0.12276647 0.11343098 0.12449038
0.03888388 -0.11104418 0.03027679 0.040542856 -0.019579634 -0.10511383 0.079047605 0.07426787
-0.049063675 -0.092468806 -0.113949284 0.08339666 -0.01361382 -0.08470294 -0.007178313 0.03902756
0.06725897 0.056893915 0.062096275 0.08780537 -0.017736867 0.014585093 -0.040043205 -0.06749127
0.054265857 -0.062060207 0.09331782 -0.12450744 -0.06071396 0.07517609 0.004490493 0.0054032123
0.034772456 0.11304875 0.042660207 0.017294273 0.035770416 0.025497839 0.053905696 0.022687731
0.119067475 0.054096427 -0.06955471 -0.013489062 0.031055197 -0.03788883 -0.12452267 -0.027211517
0.090795994 -0.016129024 0.07451453 -0.010136977 0.09320514 -0.075115345 -0.10208704 0.091345996
0.056949213 0.01901123 -0.016763702 0.030323401 -0.004493311 0.06574769 -0.10515705 -0.119771495
-0.058088735 0.012653351 0.118077666 0.063456535 -0.10980113 -0.104314364 -0.118624926 0.027667936
-0.036539786 0.038670048 -0.0703534 0.06587874 -0.0832828 -0.08408835 0.0038216426 0.08891247
-0.014440233 -0.031490743 -0.063059114 -0.11421726 0.041514575 0.049481645 0.096241 0.06830568
-0.02618216 -0.06201707 -0.013326451 0.061808974 0.05530615 -0.096732154 0.07434002 0.024308385
-0.110291615 0.076693535 -0.010513857 0.089527175 -0.057558045 -0.03842503 -0.035580263 -0.09303372
0.0067624478 0.098744534 0.02817011 -0.013682133 0.08286397 0.024447417 0.034435466 0.032373544
0.09233969 -0.08336032 0.064390376 -0.09199074 -0.08147931 -0.111617275 -0.0879018 -0.02961719
0.08847985 0.044078186 -0.08584097 -0.12450394 -0.1166624 0.10208302 0.0060774237 0.09826861
0.0901562 -0.03223789 -0.09465701 -0.08952518 -0.010534704 0.08346272 -0.12247075 -0.013802413
-0.046484668 0.018091548 0.039151147 -0.049252443 0.10708834 0.033504717 0.016985947 -0.035108224
-0.10461307 -0.08201735 -0.12281464 0.05066762 0.07186584 0.10947685 -0.08864032 0.027721906

network.4.bias f4 [6]
00000000: d340 94bd c0a2 29bc 2bbc eb3d 3a77 873b
00000010: e323 d13d ef71 293c
-0.07238927 -0.010353744 0.115104996 0.004134086 0.10211923 0.010342105
