P2/agent_1_policy.pth (torch, 22953 bytes, 6 tensors)

network.0.weight f4 [64, 5]
-0.032394886 -0.0923807 -0.046979934 0.0070391595 -0.17786387 -0.24339652 -0.052541606 0.18606101
0.36455968 -0.22079809 0.19994232 -0.32394364 0.30069786 0.34166288 -0.38330194 -0.44710186
0.3498763 0.019456392 0.09132659 -0.03143721 -0.12196791 -0.014772654 -0.4208949 -0.24345821
-0.30453002 -0.2729136 -0.11221086 0.013005221 0.35750216 -0.36193204 -0.1814695 0.30388048
0.051565107 0.040789455 -0.07191969 0.4442491 -0.37644774 0.12704575 0.04201588 -0.33374354
-0.31283104 -0.29682973 0.41391605 -0.055354774 -0.0014137924 -0.23490345 -0.2949894 -0.3817975
-0.21586786 -0.40559652 -0.20651127 0.3392069 -0.35884964 -0.16108002 -0.19022723 0.2972762
-0.31181344 -0.40939778 0.056361258 -0.09236488 0.19633323 -0.051799595 0.21517414 0.3460163
0.042998314 0.44359267 0.11781931 0.24341989 -0.19689012 -0.25135046 -0.12739864 0.17372423
-0.048521336 0.04363947 0.18651265 0.35908395 0.31474632 0.24986696 -0.042933702 0.03246495
-0.13678077 0.431704 -0.008985198 0.08158695 0.30222204 -0.1627096 -0.0087399185 -0.007927805
0.026496232 0.28265548 -0.31932408 -0.20468065 0.17166305 -0.053666472 0.24595928 0.19407713
-0.28708333 0.25656426 -0.28194994 -0.2754924 0.06397933 0.041915387 -0.120664716 -0.072888225
-0.24052195 -0.43004018 -0.21547548 0.18529476 -0.16410436 0.3883796 0.31766498 -0.27462816
-0.025964754 0.17344192 0.1251173 -0.2485002 -0.24737942 0.26668483 -0.109007776 -0.31967807
0.059159975 0.19361423 0.2544425 -0.23482974 0.40794414 -0.08421418 0.40621573 -0.078789644
-0.025932275 -0.13602763 -0.13998708 0.031784315 0.3190776 0.41365904 0.4136383 0.0550201
-0.32628217 0.040828373 -0.26888427 0.04878401 -0.3523851 0.24352354 0.07191825 0.30713493
-0.3194663 0.2240535 0.1485902 -0.43486935 0.3237728 -0.29577613 -0.12050897 0.43655163
0.29032958 0.18662333 0.13232923 0.41800407 0.18617688 0.2805489 -0.24756095 0.24796806
0.15381086 -0.25390846 -0.17793465 -0.24690777 0.38424194 -0.058476765 0.24817152 -0.24432577
-0.39707458 0.09978602 -0.07580215 0.22934358 -0.18089616 0.00050161424 0.18878195 0.25922602
-0.15337372 0.16345125 0.25685322 0.12696558 -0.16691494 -0.081006564 0.13252944 0.17331362
0.010202133 0.17373885 -0.14862941 0.3743139 -0.37537658 0.26362386 0.3514225 -0.24570705
0.19739309 -0.12828374 0.26239592 -0.2435812 -0.25158703 0.038080245 -0.0757415 0.1898219
-0.0851967 -0.088015996 -0.13797098 0.040162127 0.18721116 -0.1880955 -0.35265547 0.024203273
0.029550672 0.43007433 -0.39479423 0.04682213 -0.17203802 -0.2678107 -0.12814829 -0.35647872
0.34337133 -0.13961406 0.104243144 0.0062231487 -0.1852336 -0.12495062 0.45119312 -0.080337346
-0.13401046 0.20802444 -0.2075168 -0.44473982 0.046701044 0.3088333 0.29060668 0.2235291
0.17274839 -0.03359115 0.21946305 0.16034359 0.38135695 0.17318684 -0.045454025 0.25938982
0.00035366416 -0.3216044 -0.418887 0.063216984 -0.22393723 -0.14894092 -0.24909511 -0.3284614
0.32115966 0.29952598 0.27597576 0.3828292 0.27091002 -0.3615504 -0.07507151 0.41252476
00000000: 80b0 04bd 1832 bdbd 086e 40bd c0a8 e63b
00000010: f221 36be f03c 79be de35 57bd c786 3e3e
00000020: 91a7 ba3e e518 62be aebd 4c3e f1db a5be
00000030: 12f5 993e 70ee ae3e 2740 c4be 89ea e4be
00000040: fd22 b33e 0363 9f3c 6f09 bb3d 4ec4 00bd
00000050: 50ca f9bd 0009 72bc 897f d7be 1c4d 79be
00000060: 5ceb 9bbe 55bb 8bbe cfce e5bd da13 553c
00000070: 860a b73e 284f b9be 24d3 39be 3996 9b3e
00000080: ef35 533d d812 273d a14a 93bd 9e74 e33e
00000090: c2bd c0be 4818 023e d818 2c3d 6fe0 aabe
000000a0: 642b a0be 11fa 97be ceec d33e b0bb 62bd
000000b0: 004f b9ba 888a 70be da08 97be f67a c3be
000000c0: 770c 5dbe 59aa cfbe b177 53be 87ac ad3e
000000d0: 24bb b7be 29f2 24be edca 42be 9634 983e
000000e0: 03a6 9fbe 969c d1be 10db 663d cc29 bdbd
000000f0: 940b 493e d02b 54bd 9c56 5c3e 0c29 b13e
00000100: 001f 303d 941e e33e 404b f13d 1043 793e
00000110: 909d 49be 02b1 80be ca74 02be c4e4 313e
00000120: 4fbe 46bd 4dbf 323d 2cfd 3e3e dad9 b73e
00000130: 6e26 a13e 20dd 7f3e 40db 2fbd f8f9 043d
00000140: 4210 0cbe 4f08 dd3e a736 13bc 0f17 a73d
00000150: d9bc 9a3e 589d 26be e031 0fbc a0e3 01bc
00000160: a00e d93c 38b8 903e 727e a3be ce97 51be
00000170: 70c8 2f3e 60d1 5bbd c0dc 7b3e 28bc 463e
00000180: 96fc 92be 645c 833e be5b 90be 570d 8dbe
00000190: 9807 833d 78af 2b3d 101f f7bd 6c46 95bd
000001a0: 634b 76be 3a2e dcbe 9ba5 5cbe e9bd 3d3e
000001b0: f90a 28be b1d9 c63e fca4 a23e 109c 8cbe
000001c0: 09b4 d4bc c29a 313e c01e 003e d676 7ebe
000001d0: 0851 7dbe ea8a 883e 783f dfbd d8ac a3be
000001e0: bb51 723d cf42 463e 4a46 823e 3577 70be
000001f0: 0ede d03e 7c78 acbd 82fb cf3e 775c a1bd
00000200: ec6f d4bc d44a 0bbe c658 0fbe 4530 023d
00000210: 245e a33e 1ecb d33e 66c8 d33e c25c 613d
00000220: 750e a7be a73b 273d 33ab 89be bed1 473d
00000230: d26b b4be 3c5e 793e e049 933d ca40 9d3e
00000240: 1691 a3be 486e 653e 0828 183e 32a7 debe
00000250: 8cc5 a53e f86f 97be 68cd f6bd b283 df3e
00000260: 14a6 943e 301a 3f3e 5081 073e a104 d63e
00000270: 27a5 3e3e 1ba4 8f3e 9e80 7dbe 57eb 7d3e
00000280: 9880 1d3e 4a00 82be 8034 36be 64d5 7cbe
00000290: 5cbb c43e 5585 6fbd ad20 7e3e 8930 7abe
000002a0: 5c4d cbbe 9d5c cc3d 283e 9bbd 0bd9 6a3e
000002b0: d83c 39be c37e 033a 0e50 413e 46b9 843e
000002c0: 000e 1dbe c45f 273e 4482 833e 4403 023e
000002d0: c0eb 2abe c5e6 a5bd ccb5 073e 2079 313e
000002e0: d926 273c 99e8 313e 4f32 18be 12a6 bf3e
000002f0: 5c31 c0be b5f9 863e a6ed b33e a19a 7bbe
00000300: 6a21 4a3e d05c 03be c258 863e 5a6d 79be
00000310: 04d0 80be 08fa 1b3d 5c1e 9bbd ac60 423e
00000320: 9c7b aebd bb41 b4bd 4448 0dbe 0b81 243d
00000330: 48b4 3f3e 1b9c 40be 428f b4be f145 c63c
00000340: 4014 f23c b432 dc3e 7822 cabe 90c8 3f3d
00000350: bc2a 30be 7c1e 89be 4e39 03be 6184 b6be
00000360: 5ece af3e fdf6 0ebe 6e7d d53d 8eeb cb3b
00000370: e0ad 3dbe 1ce6 ffbd c902 e73e e887 a4bd
00000380: 0a3a 09be 5c04 553e 497f 54be f0b4 e3be
00000390: 9849 3f3d 661f 9e3e 66ca 943e d0e4 643e
000003a0: f4e4 303e e096 09bd ecba 603e 1c31 243e
000003b0: 3841 c33e e457 313e 002e 3abd bece 843e
000003c0: 006c b939 55a9 a4be 5b78 d6be e877 813d
000003d0: cd4f 65be f883 18be ca12 7fbe 182c a8be
000003e0: 0a6f a43e 785b 993e b24c 8d3e 3002 c43e
000003f0: b8b4 8a3e 221d b9be 18bf 99bd 7236 d33e

network.0.bias f4 [64]
-0.041235715 0.25487435 0.12555002 0.41690767 -0.41146544 -0.040549368 0.20866486 -0.03036514
-0.19289386 -0.12062472 0.21443513 -0.285563 -0.36413354 0.010295361 0.12347394 -0.4119025
-0.027285196 -0.26615644 -0.3019139 -0.14611363 -0.21783786 0.03512215 0.20255622 -0.3986313
0.44052297 0.36210448 -0.15969595 0.12964542 -0.38535187 -0.26714048 -0.34735626 0.43763915
-0.40625113 0.14750072 0.18420789 -0.35621107 0.22232234 0.30837438 0.08382569 -0.12199399
0.37600207 0.26195443 -0.20581104 0.13603377 0.41463766 0.00035613775 -0.25596628 -0.3764394
-0.28219295 -0.12996158 -0.052327335 -0.34194356 0.3362774 0.10703468 -0.30172643 -0.07481095
0.0084048975 0.3090994 0.04199194 -0.16622543 -0.24211161 0.1425462 0.3690895 -0.34265321
00000000: c8e6 28bd e47e 823e 2f90 003e ec74 d53e
00000010: 99ab d2be 1817 26bd 3eac 553e 50c0 f8bc
00000020: f885 45be 180a f7bd e294 5b3e 5035 92be
00000030: b66f babe e0ad 283c e8df fc3d e2e4 d2be
00000040: 3485 dfbc a845 88be 7594 9abe d09e 15be
00000050: e310 5fbe 3edc 0f3d e66a 4f3e 6719 ccbe
00000060: 3a8c e13e c265 b93e 5687 23be c5c1 043e
00000070: d74c c5be a3c6 88be aed8 b1be 3d12 e03e
00000080: 2600 d0be 6e0a 173e fea0 3c3e 4c61 b6be
00000090: 78a8 633e 3fe3 9d3e ceac ab3d fcd7 f9bd
000000a0: 5883 c03e e41e 863e 21c0 52be 704c 0b3e
000000b0: 634b d43e 00b8 ba39 030e 83be aabc c0be
000000c0: 987b 90be a614 05be 3055 56bd 3a13 afbe
000000d0: 8d2c ac3e 0035 db3d e37b 9abe 7c36 99bd
000000e0: b2b4 093c 4742 9e3e beff 2b3d 0037 2abe
000000f0: 1bec 77be a2f7 113e 4df9 bc3e 3e70 afbe

network.2.weight f4 [64, 64]
0.020963937 -0.04963886 0.11141861 -0.059897855 -0.12052901 0.057615627 -0.110664144 0.04561849
-0.021140352 -0.004360169 0.12185722 0.06511451 -0.036720693 -0.12119317 -0.043118104 0.07397552
0.002019555 0.07021138 0.02238679 -0.083418146 0.0052231997 0.08907216 -0.063177094 -0.10089485
-0.034581363 -0.044991594 0.075947635 0.053925294 0.007229373 0.0027310252 -0.030616045 -0.04471904
-0.12084283 -0.12576953 0.118394926 0.018196926 0.12168331 0.03172019 -0.04377628 0.114777446
0.052102152 0.06315235 0.017067298 -0.10408829 -0.057870798 0.08520441 -0.030337736 0.0025918037
0.028322875 -0.12431075 0.040722176 0.022796422 -0.03128971 0.0947069 0.0757183 -0.039713368
-0.075254865 -0.021699322 -0.09849204 0.049052015 -0.09170367 -0.02358693 0.07809401 0.010737196
0.0026129484 0.03389387 -0.08508624 -0.06189686 -0.12436795 -0.034981713 -0.042707726 -0.06432836
-0.05958964 -0.024383798 0.09628701 0.0711907 -0.056299865 0.00581792 0.10595901 -0.034474254
-0.11641972 0.08751471 -0.052940995 -0.013832867 -0.054876924 -0.118827075 -0.07640673 -0.047624066
-0.122933194 -0.10523559 0.08206445 0.029858634 -0.028550655 0.11916302 -0.0032918602 -0.024071187
-0.042652458 0.09258114 0.03858021 0.03394012 0.04458633 0.05406688 0.11189024 -0.013525113
0.014164612 -0.09120667 -0.05626951 0.051276743 0.12135829 0.06914906 0.00663954 0.014093578
0.05542934 0.028884903 -0.023526654 -0.017902806 0.008218586 -0.0010799915 -0.042093992 0.006567478
0.08918792 0.0010357946 -0.03523363 0.08879991 -0.0032657534 0.045138627 -0.019713059 -0.06606546
-0.03811799 -0.030151589 -0.031265005 0.09961092 -0.0104396045 -0.08789963 0.104365624 0.107032984
0.08191872 0.010646015 -0.017365595 0.10898094 0.0076126903 0.036094338 -0.12246948 -0.007647276
-0.0041206675 0.046695232 0.10236116 -0.07100007 0.004884541 0.012287101 0.0102802655 0.021237597
0.047102224 -0.12017438 -0.045684777 0.034776896 0.043624446 0.09624919 0.102498546 0.08815769
0.0049212724 -0.038814165 -0.084643036 -0.055348814 0.020898959 -0.124317296 0.023398118 0.11610666
0.097206414 0.055517957 -0.058709204 0.057054587 -0.08019644 -0.113992244 -0.06664866 0.014996827
0.04164584 -0.06475969 0.03580883 0.09030591 -0.04997799 -0.08883363 0.068550125 -0.11813977
-0.07058082 -0.10804204 -0.087333724 0.02193731 -0.12468222 0.022134732 0.057499982 -0.060598597
0.071893916 0.09764758 0.12443894 -0.11437641 -0.01983668 -0.08779687 -0.01597254 -0.104169786
-0.12386584 -0.08245283 -0.08679117 -0.051511526 0.08266896 0.045573667 -0.120184064 -0.07761386
-0.07633105 0.028591007 -0.10368298 0.06918308 0.037054896 -0.075774685 0.08014844 0.0030799657
-0.08945669 -0.12039085 0.021064699 -0.0046841204 0.0896496 -0.115208134 0.11090709 0.072324306
-0.07421084 -0.047661558 -0.10811935 0.10412027 -0.09166144 -0.02291502 -0.09557618 0.019962817
0.06687738 0.11461407 0.08413993 -0.0398636 -0.05408822 -0.0074864775 -0.024907738 0.11364342
-0.09447797 -0.06293847 0.053087607 -0.08792074 0.077622995 -0.043105736 -0.002405867 0.030023739
-0.11876619 -0.059726328 -0.08801149 -0.105041444 -0.0030898005 -0.0033206642 -0.055272162 0.09757711
00000000: 90bc ab3c 1e52 4bbd 712f e43d 7457 75bd
00000010: ead7 f6bd 5dfe 6b3d e2a3 e2bd 74da 3a3d
00000020: 882e adbc c0df 8ebb 4790 f93d c25a 853d
00000030: 7068 16bd 2034 f8bd 9c9c 30bd 7a80 973d
00000040: 835a 043b fcca 8f3d 8064 b73c 22d7 aabd
00000050: 6027 ab3b 776b b63d fe62 81bd f6a1 cebd
00000060: 30a5 0dbd 1b49 38bd 6f8a 9b3d c5e0 5c3d
00000070: 60e4 ec3b 00fb 323b 80ce fabc 502b 37bd
00000080: 727c f7bd bac9 00be 0a79 f23d b811 953c
00000090: 1935 f93d 08ed 013d c24e 33bd 7010 eb3d
000000a0: 1169 553d 0556 813d b8d0 8b3c 3e2c d5bd
000000b0: ee09 6dbd a67f ae3d d886 f8bc 40db 293b
000000c0: 6005 e83c a296 febd 4ccc 263d 90bf ba3c
000000d0: a429 00bd b1f5 c13d 3212 9b3d 7caa 22bd
000000e0: 391f 9abd c7c2 b1bc 32b6 c9bd c4ea 483d
000000f0: 22cf bbbd 6139 c1bc c1ef 9f3d 10eb 2f3c
00000100: 003e 2b3b 4cd4 0a3d b241 aebd 9087 7dbd
00000110: a0b4 febd fc48 0fbd 4cee 2ebd 96be 83bd
00000120: 4414 74bd 88c0 c7bc 2032 c53d 6ecc 913d
00000130: b09a 66bd 40a4 be3b 0a01 d93d e034 0dbd
00000140: 766d eebd ea3a b33d a8d8 58bd 40a3 62bc
00000150: a0c6 60bd 9c5b f3bd 227b 9cbd 7411 43bd
00000160: 66c4 fbbd c285 d7bd 6811 a83d 189a f43c
00000170: 10e3 e9bc be0b f43d 40bc 57bb f030 c5bc
00000180: 58b4 2ebd 2e9b bd3d 4806 1e3d cc04 0b3d
00000190: 28a0 363d 3c75 5d3d b626 e53d 7098 5dbc
000001a0: b012 683c 90ca babd dc7a 66bd 9007 523d
000001b0: b28a f83d 069e 8d3d 8090 d93b c0e8 663c
000001c0: e009 633d 08a0 ec3c f8ba c0bc e8a8 92bc
000001d0: 40a7 063c 808e 8dba c06a 2cbd 0034 d73b
000001e0: 28a8 b63d 80c3 873a 2451 10bd badc b53d
000001f0: 4006 56bb 48e3 383d 487d a1bc 544d 87bd
00000200: 9c21 1cbd 7700 f7bc bc0f 00bd cf00 cc3d
00000210: e00a 2bbc b904 b4bd a5bd d53d 1c34 db3d
00000220: 00c5 a73d a06c 2e3c 4b42 8ebc 6631 df3d
00000230: e073 f93b a8d7 133d 47d1 fabd 0096 fabb
00000240: aa06 87bb 8043 3f3d baa2 d13d 7c68 91bd
00000250: 800e a03b d64f 493c 8f6e 283c 78fa ad3c
00000260: 43ee 403d fc1d f6bd f61f 3bbd 3872 0e3d
00000270: 8caf 323d 4c1e c53d c2ea d13d 058c b43d
00000280: a042 a13b 9afb 1ebd 5459 adbd 70b5 62bd
00000290: 4b34 ab3c 119a febd 69ad bf3c 54c9 ed3d
000002a0: 2814 c73d cc66 633d 1079 70bd 12b2 693d
000002b0: 083e a4bd c474 e9bd 187f 88bd 40b5 753c
000002c0: d494 2a3d baa0 84bd 48ac 123d 4ef2 b83d
000002d0: b9b5 4cbd 68ee b5bd 0264 8c3d 44f3 f1bd
000002e0: ad8c 90bd 2545 ddbd 06dc b2bd e0b5 b33c
000002f0: 6459 ffbd e653 b53c 1a85 6b3d 3c36 78bd
00000300: 1e3d 933d 74fb c73d d8d9 fe3d 2e3e eabd
00000310: 8880 a2bc d8ce b3bd d8d8 82bc f856 d5bd
00000320: 60ad fdbd 08dd a8bd 92bf b1bd c0fd 52bd
00000330: 584e a93d 74ab 3a3d 1023 f6bd 04f4 9ebd
00000340: 7453 9cbd b037 ea3c be57 d4bd dcaf 8d3d
00000350: e0c6 173d c22f 9bbd de24 a43d 40d9 493b
00000360: 1235 b7bd 7a8f f6bd e08f ac3c 407d 99bb
00000370: 369a b73d 3ef2 ebbd 4223 e33d c41e 943d
00000380: dafb 97bd c438 43bd ae6d ddbd 023d d53d
00000390: feb8 bbbd 48b8 bbbc 72bd c3bd 1089 a33c
000003a0: 02f7 883d c8ba ea3d 8e51 ac3d 0448 23bd
000003b0: 9c8b 5dbd 2051 f5bb 500b ccbc e2bd e83d
000003c0: aa7d c1bd e2e5 80bd 6472 593d ca0f b4bd
000003d0: cef8 9e3d a48f 30bd c0ab 1dbb 58f4 f53c
000003e0: b03b f3bd 98a3 74bd 5e3f b4bd f81f d7bd
000003f0: 407e 4abb 809f 59bb 1065 62bd 82d6 c73d

network.2.bias f4 [64]
0.024754904 0.041932836 0.033713777 -0.090623096 0.060450625 -0.089132056 -0.07815309 -0.020363908
-0.036404207 0.018769458 0.08007118 -0.008079514 0.08301925 -0.05527778 -0.069304615 -0.036501884
-0.04009917 -0.08206715 0.12624383 -0.11696161 0.1153476 -0.021346778 0.004867077 0.08137666
-0.028040826 0.0767374 0.07176101 0.058222003 0.050401777 0.096478425 -0.07282519 0.052572057
-0.071790904 0.097896546 0.0624022 -0.027863855 0.061658874 0.03159836 -0.07529928 -0.027875528
0.07171532 0.036821604 0.0197532 -0.07764737 -0.0042539644 0.124035895 0.033661485 -0.0014023008
-0.074293405 -0.068111524 -0.011841441 0.009935483 -0.05210443 -0.045274228 -0.07814799 0.09039436
0.10177065 -0.055240247 0.028827542 0.12739986 -0.040092185 0.077496745 0.106264785 -0.025313277
00000000: ccca ca3c c4c1 2b3d 7517 0a3d 9a98 b9bd
00000010: 139b 773d de8a b6bd ba0e a0bd 36d2 a6bc
00000020: 941c 15bd 68c2 993c 5cfc a33d f05f 04bc
00000030: ff05 aa3d f46a 62bd 94ef 8dbd 0083 15bd
00000040: 073f 24bd d212 a8bd 1046 013e 9289 efbd
00000050: 5d3b ec3d 70df aebc 007c 9f3b cea8 a63d
00000060: e0b5 e5bc 7f28 9d3d 70f7 923d 327a 6e3d
00000070: 1872 4e3d 7b96 c53d 6025 95bd cc55 573d
00000080: 1c07 93bd fc7d c83d 7399 7f3d bd42 e4bc
00000090: 048e 7c3d 486d 013d 8236 9abd 385b e4bc
000000a0: 7bdf 923d 40d2 163d 76d1 a13c 9605 9fbd
000000b0: d764 8bbb 8806 fe3d a0e0 093d 68cd b7ba
000000c0: 2427 98bd 0e7e 8bbd 9a02 42bc 70c8 223c
000000d0: 746b 55bd 7871 39bd 0e0c a0bd ae20 b93d
000000e0: 216d d03d 9943 62bd bd27 ec3c 1c75 023e
000000f0: b437 24bd 9db6 9e3d 5aa1 d93d ca5d cfbc

network.4.weight f4 [6, 64]
-0.016451148 0.060861632 0.042440552 0.008642629 0.020351458 -0.122424796 -0.029073328 0.05709219
0.1104528 0.06691775 0.074634686 -0.100143656 -0.07998207 -0.08106674 -0.060799584 0.065643355
-0.061016604 0.11162625 0.123862624 0.05305612 -0.04085326 0.098627165 -0.10509966 -0.086561926
0.0067721605 -0.05427299 -0.033404596 0.06639567 -0.055426523 -0.004544966 -0.092218384 -0.081129625
-0.055881694 -0.10796365 0.08467319 -0.008685505 0.008276224 0.07763334 0.05045876 0.08184594
0.026665607 0.029905856 -0.024581008 0.027245462 -0.023097489 0.024677772 -0.0382389 0.029688364
-0.11752221 -0.022022828 0.088866286 0.017671555 -0.07275164 -0.02561012 -0.053623244 -0.10810524
0.09045112 0.08541092 -0.10103413 0.0016164435 -0.04897161 0.075915314 -0.043823093 0.02572145
-0.05621225 0.036033496 -0.067593075 -0.002802506 -0.07665404 0.108538345 -0.037540495 0.06675136
0.09559068 0.0061725974 -0.025999967 0.12161614 0.022994714 0.06583473 0.06637667 -0.039964274
0.029950503 0.090185285 0.013450938 -0.041220814 -0.060189713 0.04727684 0.048272118 0.027475867
-0.005878851 -0.053214364 -0.028511673 0.10315044 -0.001975149 -0.090315714 -0.020186216 -0.03717348
-0.057272017 0.018950358 -0.07457943 -0.08597916 -0.1240363 -0.063583516 0.10059197 -0.023582324
-0.075124554 -0.0723688 0.018345652 -0.033063903 0.058840714 -0.037708405 0.004173468 -0.1160338
0.10017724 -0.03151132 0.07294368 0.118598044 -0.025502294 -0.07134481 0.09254794 -0.12521751
0.04262986 0.008624445 0.008222692 -0.029186586 0.09487794 0.09485641 0.07455559 0.087023646
-0.123959556 0.06693868 0.09642989 0.0478791 -0.060764946 -0.017642066 0.09205206 -0.05870126
-0.0826709 -0.08581002 0.02610338 0.020031601 0.022929138 0.09062159 -0.02397199 -0.053338736
0.049902335 0.055549666 0.009620447 -0.05164154 0.12131914 0.022144362 0.047194928 0.010646182
-0.089881 -0.02986877 -0.08334245 -0.1224675 0.049271807 0.004097212 0.05300148 -0.089159444
0.08248721 -0.02481495 -0.05544871 0.10527074 0.034110084 -0.105880536 0.038973615 0.11397928
-0.078481264 -0.012076288 0.060855456 -0.005001366 -0.066928364 -0.08972318 0.08968182 -0.052226838
0.027303964 -0.008616611 -0.026181525 -0.06566766 0.07923336 -0.054512292 0.03971593 0.11223137
0.007190561 0.1049265 -0.09680037 0.04747074 0.0047622025 0.09323051 -0.027706169 0.060899217
-0.12294812 0.053797513 0.10296372 0.1151589 0.06528367 -0.066773176 -0.002842918 -0.06123794
0.086091965 -0.018962413 -0.11122724 -0.09866923 -0.06746683 -0.101850525 0.0052141845 -0.011882171
0.059493918 -0.05657147 -0.018896723 -8.434057e-06 -0.05569688 -0.019878924 -0.028840646 -0.0784195
0.067818865 0.048959203 0.11196067 0.07282823 0.02614148 0.03305058 0.10320471 0.042950436
0.09212811 0.011114445 0.09194206 0.029876407 -0.073776975 -0.0033651679 0.0641243 0.0214777
0.08620442 -0.04965587 0.09730676 -0.09318255 0.112717755 -0.111298755 0.012300804 -0.07665951
0.124168724 -0.009129345 -0.12885973 0.12267126 -0.063058496 0.035420418 -0.09199385 0.032480285
0.050686996 -0.03993248 0.08408968 0.045828335 -0.037773475 -0.04742273 -0.05537499 -0.07143559
00000000: 8fc4 86bc 0c4a 793d 25d6 2d3d d099 0d3c
00000010: 1ab8 a63c dab9 fabd 302b eebc 80d9 693d
00000020: 1435 e23d 2c0c 893d 12da 983d 1e18 cdbd
00000030: a4cd a3bd 5206 a6bd fc08 79bd 0670 863d
00000040: 8cec 79bd 4e9c e43d b0ab fd3d 6051 593d
00000050: bf55 27bd 0afd c93d 7e3e d7bd 6147 b1bd
00000060: 00e9 dd3b 5b4d 5ebd 42d3 08bd 74fa 873d
00000070: ec06 63bd f0ed 94bb fedc bcbd 4a27 a6bd
00000080: 34e4 64bd 0c1c ddbd 2369 ad3d a64d 0ebc
00000090: 0099 073c 3bfe 9e3d d8ad 4e3d d89e a73d
000000a0: d571 da3c 20fd f43c 1c5e c9bc e031 df3c
000000b0: f236 bdbc 0a29 ca3c 65a0 1cbd 0335 f33c
000000c0: 7caf f0bd 3869 b4bc 87ff b53d f0c3 903c
000000d0: d0fe 94bd 50cc d1bc 0ca4 5bbd 4866 ddbd
000000e0: 703e b93d eceb ae3d fbea cebd d8de d33a
000000f0: 7496 48bd 7d79 9b3d d87f 33bd cab5 d23c
00000100: d13e 66bd dc97 133d 3d6e 8abd 40aa 37bb
00000110: cbfc 9cbd 5a49 de3d 10c4 19bd f0b4 883d
00000120: 0cc5 c33d 8043 ca3b e2fd d4bc e211 f93d
00000130: 695f bc3c 5cd4 863d 7ef0 873d 94b1 23bd
00000140: c25a f53c 10b3 b83d 5361 5c3c 28d7 28bd
00000150: 7d89 76bd 5ca5 413d fcb8 453d 1215 e13c
00000160: 60a3 c0bb 4ef7 59bd 5091 e9bc 8a40 d33d
00000170: 8071 01bb 72f7 b8bd 905d a5bc 3843 18bd
00000180: 1096 6abd c83d 9b3c 1abd 98bd d815 b0bd
00000190: be06 febd 1338 82bd 2a03 ce3d b82f c1bc
000001a0: e7da 99bd 1836 94bd 9f49 963c 046e 07bd
000001b0: f602 713d 2174 1abd 96c1 883b 21a3 edbd
000001c0: ba29 cd3d 0412 01bd 7f63 953d 88e3 f23d
000001d0: 30ea d0bc 3a1d 92bd c689 bd3d 0539 00be
000001e0: a69c 2e3d 8b4d 0d3c 78b8 063c b518 efbc
000001f0: 5e4f c23d 1444 c23d 9ab0 983d 7439 b23d
00000200: 82de fdbd 2617 893d 097d c53d e01c 443d
00000210: aae4 78bd 1886 90bc ca85 bc3d bb70 70bd
00000220: 5c4f a9bd 2abd afbd c1d6 d53c 5019 a43c
00000230: e3d5 bb3c d097 b93d e860 c4bc b879 5abd
00000240: 6466 4c3d 0c88 633d 149f 1d3c 1486 53bd
00000250: 2b76 f83d 1868 b53c 784f 413d 536d 2e3c
00000260: 8813 b8bd 5aaf f4bc 72af aabd 3ed0 fabd
00000270: 3cd1 493d e841 863b 1418 593d 3a99 b6bd
00000280: 0eef a83d b948 cbbc 301e 63bd 3098 d73d
00000290: 04b7 0b3d e5d7 d8bd cca2 1f3d f86d e93d
000002a0: c9ba a0bd a0db 45bc 9243 793d 80e2 a3bb
000002b0: bd11 89bd c9c0 b7bd 1aab b73d cfeb 55bd
000002c0: 90ac df3c b02c 0dbc a37a d6bc c47c 86bd
000002d0: 1a45 a23d 4848 5fbd 2cad 223d 8fd9 e53d
000002e0: cc9e eb3b b4e3 d63d 463f c6bd ae70 423d
000002f0: 400c 9c3b a3ef be3d 0cf8 e2bc 7571 793d
00000300: 39cc fbbd c85a 5c3d a5de d23d 6ed8 eb3d
00000310: 72b3 853d 60c0 88bd 4050 3abb a2d4 7abd
00000320: fc50 b03d 1057 9bbc 1bcb e3bd 1813 cabd
00000330: 0d2c 8abd 0297 d0bd c0db aa3b 70ad 42bc
00000340: e5af 733d 7cb7 67bd 4dcd 9abc 0080 0db7
00000350: 6922 64bd 20d9 a2bc 3843 ecbc 679a a0bd
00000360: 9ee4 8a3d 7289 483d a34b e53d f826 953d
00000370: a826 d63c 0c60 073d fe5c d33d ccec 2f3d
00000380: aaad bc3d 5c19 363c 1e4c bc3d 5ebf f43c
00000390: 6218 97bd 268a 5cbb 9a53 833d 00f2 af3c
000003a0: f18b b03d f463 4bbd c448 c73d 7ed6 bebd
000003b0: 91d8 e63d 9af0 e3bd 5089 493c a9ff 9cbd
000003c0: 2c4c fe3d 4093 15bc cef3 03be 123b fb3d
000003d0: d024 81bd 0015 113d 4667 bcbd 0c0a 053d
000003e0: 2b9d 4f3d 3d90 23bd 3637 ac3d 7eb6 3b3d
000003f0: 5cb8 1abd 563e 42bd e3d0 62bd d34c 92bd

network.4.bias f4 [6]
-0.045781236 0.0012908967 0.027180914 0.040696032 0.035256065 -0.12201806
00000000: 1b85 3bbd 4e33 a93a 82aa de3c e2b0 263d
00000010: aa68 103d 9be4 f9bd
