P2/agent_0_policy.pth (torch, 22953 bytes, 6 tensors)

network.0.weight f4 [64, 5]
0	0xbec24bb6	-0.37948388
1	0x3e2a928b	0.16657464
2	0x3ea38f81	0.31945422
3	0x3ed92781	0.42412952
4	0x3edd4b4e	0.43221515
5	0x3e886758	0.26641345
6	0xbebbe04e	-0.36694568
7	0xbeca03b2	-0.39455944
8	0xbea3ceb6	-0.31993645
9	0x3ad0cd00	0.0015930235
10	0xbe506aa4	-0.2035318
11	0x3ed9080d	0.42388955
12	0xbeb9f591	-0.36320165
13	0xbb157039	-0.0022802486
14	0x3d9bfea3	0.076169275
15	0xbeaea0f4	-0.34107172
16	0x3e56d228	0.20978606
17	0x3e106410	0.14100671
18	0xbe37e7f6	-0.1795958
19	0xbd275da0	-0.040860772
20	0x3ea2e8d4	0.3181826
21	0xbd82f27d	-0.06393907
22	0x3e859594	0.26090682
23	0x3ec3540c	0.3815006
24	0x3e82490b	0.25446352
25	0xbe55dcac	-0.20884961
26	0x3e90710e	0.28211254
27	0xbed9d9de	-0.42549032
28	0xbd38b850	-0.04509765
29	0xbe8cb89a	-0.2748459
30	0x3eb41298	0.35170436
31	0xbd62b4be	-0.05534815
32	0x3e4a7ebc	0.19774908
33	0xbd45a3dc	-0.04825197
34	0x3ee1f44e	0.44131702
35	0xbe957962	-0.2919417
36	0x3e3b12f0	0.18268943
37	0x3df49300	0.119421005
38	0x3ea7483a	0.32672292
39	0xbabed400	-0.001455903
40	0xbeab2f1e	-0.33434385
41	0x3ecc51f6	0.3990628
42	0xbe2b02c2	-0.16700271
43	0x3ee2cf34	0.44298708
44	0x3eb68af0	0.35652876
45	0xbe9d2811	-0.3069463
46	0xbeae2a30	-0.34016562
47	0xbd931b51	-0.071829446
48	0xbec7e063	-0.3903838
49	0xbe6cf224	-0.23139244
50	0x3ec23150	0.37928247
51	0x3cb2ab20	0.021810114
52	0xbeb349ac	-0.35017145
53	0x3e336c10	0.17521691
54	0xbedf9e88	-0.43675637
55	0x3ebf76c6	0.37395304
56	0xbdf0d448	-0.117592394
57	0x3e9b41d4	0.3032366
58	0xbe0283ea	-0.12745634
59	0x3eda67ba	0.42657262
60	0x3e88802e	0.26660293
61	0x3ea0545e	0.31314367
62	0x3eb37cf2	0.35056263
63	0x3edd8df4	0.43272364
64	0x3e712278	0.23548305
65	0xbe115ecc	-0.14196318
66	0x3e9816fe	0.29705042
67	0x3e403f58	0.18774164
68	0xbed799ed	-0.42109624
69	0x3ecfdd62	0.4059859
70	0xbe16ef77	-0.14739786
71	0x3e5e91a6	0.21735248
72	0x3eb9d1b3	0.362928
73	0x3e124ebe	0.1428785
74	0xbe7be2ab	-0.24598186
75	0xbed50b47	-0.41610166
76	0xbed2a052	-0.4113794
77	0xbe0abe76	-0.13549218
78	0xbe8e4470	-0.2778659
79	0x3e0b3b00	0.13596725
80	0x3eace964	0.33771813
81	0xbd0ae448	-0.033909112
82	0x3e962cd0	0.29331064
83	0x3ee47594	0.44620955
84	0xbeafed2f	-0.34360644
85	0xbea5e3aa	-0.32400256
86	0x3ec38d93	0.3819395
87	0xbcedcf6c	-0.02902957
88	0xbd221460	-0.039570212
89	0x3de4df56	0.111754104
90	0x3eada337	0.33913586
91	0x3e0fc7f2	0.14041117
92	0x3e85b601	0.2611542
93	0xbe9b055e	-0.30277532
94	0xbe83bb0f	-0.25728652
95	0x3ea9802d	0.33105603
96	0x3d0c6d2b	0.0342838
97	0x3eb4dcc1	0.35324672
98	0x3d7a406d	0.061096597
99	0x3ece6dbb	0.40318093
100	0x3ebf4bb8	0.37362456
101	0x3ec7546e	0.38931602
102	0xbe6afaba	-0.22947207
103	0x3d74fef0	0.05981344
104	0x3ed6a6ce	0.41924137
105	0xbe67eecc	-0.22649688
106	0x3c5caa6b	0.013468365
107	0x3ec23600	0.37931824
108	0x3e9a8190	0.30176973
109	0x3ed0da94	0.40791762
110	0x3ecd6a2b	0.40120062
111	0xbe4a78bb	-0.19772618
112	0x3ec871ce	0.39149326
113	0x3e79e3c6	0.24403295
114	0xbdbd9b5b	-0.09258147
115	0x3e92aa62	0.28645617
116	0x3e6c3dc0	0.23070431
117	0xbead73f0	-0.33877516
118	0xbeb08abe	-0.34480852
119	0x3dadf5a8	0.08494121
120	0x3ed062c8	0.40700364
121	0x3e694afc	0.2278251
122	0xbe310e8e	-0.17290708
123	0xbe28a192	-0.16467884
124	0x3ea5686e	0.32306236
125	0x3e524628	0.20534575
126	0xbe49c646	-0.19704542
127	0xbe594fee	-0.21221897
128	0xbe559cb4	-0.20860559
129	0xbe596603	-0.2123032
130	0x3eb42074	0.3518101
131	0x3e69a814	0.22818023
132	0x3e91be60	0.28465557
133	0xbe498ae8	-0.19681895
134	0xbe89a280	-0.2688179
135	0x3e7bbc5c	0.24583572
136	0x3ddfae10	0.10921872
137	0x3e4dd274	0.20099813
138	0xbd3ec458	-0.046573967
139	0x3c04d8a0	0.008108288
140	0xbebabcc9	-0.36472157
141	0xbe04defe	-0.1297569
142	0x3c148161	0.009064049
143	0xbe996e22	-0.29966837
144	0xbec0bc5a	-0.376437
145	0x3e476dc8	0.19475472
146	0x3ee031e4	0.43788064
147	0xbee2d0df	-0.4429998
148	0x3e4fb3fc	0.20283502
149	0xbeaaf131	-0.3338714
150	0x3d716807	0.0589371
151	0x3dd19662	0.10233761
152	0xbe9af32a	-0.30263644
153	0x3ca1ede4	0.019766755
154	0xbea62af0	-0.32454634
155	0xbe695b1a	-0.22788659
156	0xbcb95f98	-0.02262859
157	0x3e08c8b4	0.13357812
158	0x3d8f3b3e	0.069937214
159	0x3ed89b46	0.42305964
160	0xbe9dc119	-0.30811384
161	0xbd813685	-0.06309227
162	0xbcbd1f10	-0.0230861
163	0xbed289f4	-0.41120875
164	0x3ead7a54	0.3388239
165	0x3d263174	0.040574506
166	0x3e033670	0.12813735
167	0xbdce9622	-0.10087229
168	0x3ea95942	0.3307591
169	0xbe6e4f2a	-0.23272386
170	0xbed1ff39	-0.41015032
171	0x3edf1bb4	0.43575823
172	0x3cbd011c	0.023071818
173	0xbe3efe0f	-0.18651603
174	0x3e666447	0.2249919
175	0xbe99848a	-0.29983932
176	0x3e3b1e70	0.1827333
177	0x3eccec34	0.4002396
178	0xbeb0f0e9	-0.345588
179	0xbeacd93e	-0.33759493
180	0x3d292350	0.041293442
181	0x3e3c4185	0.18384369
182	0x3dea2761	0.11433292
183	0x3cdb9c02	0.026807789
184	0x3e26f445	0.16304119
185	0xbe67710d	-0.22601719
186	0x3ec515e2	0.38493258
187	0xbe8a6454	-0.2702967
188	0x3d25b820	0.0404588
189	0xbe2dbd60	-0.16966772
190	0x3eb5929a	0.3546341
191	0xbeb19bbe	-0.34689134
192	0x3deab560	0.11460376
193	0x3dc333d8	0.09531373
194	0xbd169948	-0.036767274
195	0xbe803612	-0.25041252
196	0x3ea29641	0.3175526
197	0x3bf8456b	0.0075766346
198	0x3e81260f	0.2522435
199	0x3ed56d69	0.41685036
200	0xbe3ef831	-0.18649365
201	0xbc2bfbed	-0.0104970755
202	0xbd8806c3	-0.06641915
203	0x3eacee50	0.33775568
204	0x3e83d52c	0.25748575
205	0xbeb6ee78	-0.35728812
206	0x3e9cc23c	0.3061694
207	0xbdb44d88	-0.088038504
208	0x3ecae0f4	0.3962475
209	0x3e92bf32	0.28661495
210	0x3e97014a	0.2949317
211	0x3e5480c4	0.20752245
212	0xbe9cf7fa	-0.3065794
213	0xbec78b24	-0.38973343
214	0xbed6c3b8	-0.41946197
215	0xbe930936	-0.28717965
216	0xbeb05b67	-0.34444734
217	0x3e924d67	0.28574678
218	0x3e852157	0.26002
219	0x3ca8de5f	0.020613847
220	0xbe0e5c5d	-0.13902421
221	0x3eb12100	0.3459549
222	0xbe79ef27	-0.24407636
223	0xbdc54517	-0.096323185
224	0x3d91b86b	0.07115253
225	0xbdd08f84	-0.101836234
226	0x3dbe5be0	0.092948675
227	0xbd3aa670	-0.045568883
228	0xbedbaebb	-0.42906746
229	0xbbc03700	-0.0058659315
230	0x3da24786	0.07923798
231	0x3e53e77c	0.20693773
232	0xbe8d2792	-0.27569252
233	0xbdfce6b8	-0.123486936
234	0xbec7d2b9	-0.39027956
235	0xbe7c5633	-0.24642257
236	0xbe0e977c	-0.13924974
237	0xbee34d02	-0.4439469
238	0xbe25a898	-0.16177595
239	0x3ebd5c4a	0.36984473
240	0x3e521998	0.20517576
241	0x3e60bbaa	0.21946588
242	0xbdd66aaa	-0.10469563
243	0x3e8e6818	0.27813792
244	0xbed34ea6	-0.41270941
245	0xbe9b3058	-0.3031032
246	0x3e97bba0	0.29635334
247	0xbd74e3e8	-0.05978766
248	0xbe57fd64	-0.21092755
249	0x3d052740	0.032508135
250	0xbe482e96	-0.19549021
251	0xbe1c58bc	-0.15268224
252	0xbe1b685c	-0.15176529
253	0x3e080df0	0.13286567
254	0xbec39374	-0.38198435
255	0x3ecba50e	0.39774364

network.0.bias f4 [64]
0	0x3e6283a0	0.22120523
1	0xbe120068	-0.14257967
2	0x3e8c0299	0.27345732
3	0xbdcb6414	-0.09931198
4	0xbdbdf550	-0.09275305
5	0xbc326b80	-0.010889888
6	0x3c1d3aa7	0.009596503
7	0xbe90effe	-0.283081
8	0xbe4bc424	-0.1989904
9	0x3ecc64aa	0.3992055
10	0xbd8bb5d4	-0.0682179
11	0xbe71cb5d	-0.23612733
12	0xbee15955	-0.44013467
13	0xbecae0a4	-0.39624512
14	0x3eaf1487	0.3419535
15	0xbe44bcb2	-0.19212607
16	0xbea2252e	-0.3166899
17	0x3e3549b2	0.17703894
18	0x3ea60649	0.3242667
19	0x3ec2c7c1	0.38043025
20	0xbde87778	-0.11350912
21	0x3e16d56c	0.14729851
22	0xbd8d84ef	-0.06910121
23	0xbe86bc0a	-0.26315337
24	0xbe01bbfc	-0.12669367
25	0xbed6a0a2	-0.41919428
26	0xbe185d26	-0.14879283
27	0xbeb09cce	-0.34494632
28	0x3e6768dc	0.22598594
29	0xbecaf5f8	-0.39640784
30	0x3e81e002	0.25366217
31	0x3c3bca14	0.011461753
32	0x3ec9fdad	0.39451352
33	0x3e74f46c	0.23921365
34	0x3e347ceb	0.17625777
35	0xbec31c07	-0.3810732
36	0x3de784ba	0.113046125
37	0xbebb9999	-0.36640623
38	0xbe7c9447	-0.24665938
39	0x3e238729	0.15969528
40	0x3dba94b4	0.09110394
41	0xbe521a6f	-0.20517896
42	0xbe753bb8	-0.23948562
43	0xbd150c58	-0.036388725
44	0x3d4baa96	0.04972323
45	0xbe85ff2f	-0.26171252
46	0x3e691be6	0.22764549
47	0xbedd2124	-0.43189347
48	0x3eaad6a2	0.33366877
49	0xbe615391	-0.22004534
50	0xbe3fcee4	-0.18731266
51	0xbe5770fb	-0.21039192
52	0xbdb0995c	-0.08623001
53	0xbd555eec	-0.052092478
54	0x3cf19e20	0.029494345
55	0xbe91a702	-0.2844773
56	0xbec95a3e	-0.39326662
57	0xbe187266	-0.1488739
58	0xbd8062bc	-0.06268832
59	0x3ed908b9	0.42389467
60	0xbe5d2774	-0.21597081
61	0x3dce30da	0.100679114
62	0x3e894890	0.26813173
63	0x3eb7e381	0.3591576

network.2.weight f4 [64, 64]
0	0x3aee7380	0.0018192381
1	0xbdcbd048	-0.09951836
2	0x3d903a5c	0.07042381
3	0x3da94090	0.082642674
4	0xbdc6be2c	-0.09704241
5	0xbdbd515e	-0.09244035
6	0xbc7df750	-0.015500858
7	0x3cb16d58	0.021658584
8	0x3d9ae118	0.075624645
9	0xbd24341c	-0.040088758
10	0xbb8c72a0	-0.0042861253
11	0xbd5d84e8	-0.054081827
12	0x3dcb7ac4	0.09935525
13	0xbc84ed90	-0.01622656
14	0x3da6f26c	0.08151707
15	0xbd773168	-0.06034985
16	0xbd9f99be	-0.07792996
17	0x3d056768	0.03256932
18	0xbd1368d4	-0.035988644
19	0xbd3764a0	-0.044773698
20	0xbdb16e38	-0.08663601
21	0xbdc856c2	-0.09782173
22	0xbd63ea88	-0.05564359
23	0xbc88cc28	-0.016698912
24	0x3d29afa8	0.041427284
25	0x3de4643e	0.11151932
26	0x3ddee67c	0.10883805
27	0xbd9bf86e	-0.076157436
28	0xbde85dfe	-0.113460526
29	0xbddf5a82	-0.10905935
30	0x3ab2ec00	0.0013650656
31	0xbcd6f640	-0.026240468
32	0x3b1d4600	0.0023998022
33	0xbdb49850	-0.08818114
34	0xbdf94a5c	-0.12172386
35	0x3decf6e4	0.11570528
36	0x3d087de8	0.0333232
37	0x3bca7e80	0.0061796308
38	0xbc468940	-0.012117684
39	0xbc05cfc0	-0.008167207
40	0xbded4b80	-0.11586666
41	0x3d2d8ed4	0.04237254
42	0xbdae2c86	-0.08504586
43	0x3c17ae20	0.009257823
44	0x3d49abd0	0.04923612
45	0xbdf7acde	-0.12093519
46	0x3bb9a340	0.005665213
47	0xbd5f91e0	-0.054582477
48	0x3d7b61a4	0.061372414
49	0xbd3c4b78	-0.04597041
50	0x3da140b4	0.07873669
51	0xbd5da580	-0.05411291
52	0xbda7e882	-0.08198644
53	0xbd59cd68	-0.053174406
54	0x3dc2ad46	0.095057055
55	0x3cc32590	0.023821622
56	0x3d87c96c	0.06630215
57	0xbd451e9c	-0.048124894
58	0x3df285b0	0.11841905
59	0x3d610428	0.054935604
60	0xbd15134c	-0.036395356
61	0x3b186d40	0.0023258477
62	0x3be7a460	0.0070691556
63	0xbdabfff2	-0.08398427
64	0xbde474c2	-0.11155082
65	0x3d496edc	0.04917799
66	0xbda5b746	-0.08091597
67	0xbdf9bc80	-0.12194157
68	0x3de84fb8	0.1134333
69	0x3dcb24b4	0.0991911
70	0x3b3577c0	0.0027689785
71	0x3cf5b678	0.029994234
72	0xbd089998	-0.033349603
73	0xbdfff722	-0.12498309
74	0x3dcda116	0.1004049
75	0xbdd367a0	-0.10322499
76	0xbdd53b1c	-0.10411665
77	0x3d84301a	0.06454487
78	0x3de996b6	0.11405699
79	0x3cac58e0	0.021038473
80	0x3c25fbc0	0.010130823
81	0x3c9baf30	0.019004434
82	0xbcd67e28	-0.026183203
83	0xbd0d8460	-0.03455007
84	0x3da465aa	0.080272034
85	0xbd8871fe	-0.06662367
86	0x3dbf4392	0.0933906
87	0xbd225120	-0.039628148
88	0xbdea8186	-0.11450486
89	0x3d0f6edc	0.035017833
90	0xbdcd10aa	-0.10012944
91	0xbbc5eda0	-0.00604029
92	0x3df972c4	0.12180093
93	0xbdb228d8	-0.086991966
94	0xbd4341b0	-0.047670066
95	0xbd5fa3f8	-0.054599732
96	0xbc9318b8	-0.017956123
97	0xbce8b150	-0.028404862
98	0x3ce099d8	0.027417108
99	0xbdfa124c	-0.12210521
100	0x3cea0260	0.028565586
101	0xbc8aa380	-0.016923666
102	0x3dfdaa4e	0.12385999
103	0x3db2f74a	0.08738573
104	0x3c055ec0	0.008140266
105	0x3db36d46	0.08761077
106	0x3ccfb870	0.025356501
107	0xbd9e0ff8	-0.077178895
108	0xbd76b19c	-0.060227975
109	0x3dd75a18	0.10515231
110	0xbcd871c8	-0.026421443
111	0xbd11540c	-0.035480544
112	0xbd812fdc	-0.063079566
113	0xbbb6aa20	-0.0055744797
114	0xbdb75710	-0.08952153
115	0xbd017db4	-0.03161402
116	0xbc84a018	-0.01618962
117	0xbdf1517c	-0.1178312
118	0x3da8a3c2	0.08234359
119	0xbc689b30	-0.014197156
120	0xbdc165c6	-0.0944324
121	0x3d535a38	0.05159971
122	0x3d27d888	0.040977985
123	0x3cabb0d8	0.02095835
124	0xbd1405fc	-0.03613852
125	0x3d57d150	0.05268985
126	0xbd135458	-0.03596911
127	0xbd75f88c	-0.060051486
128	0xbdc28376	-0.094977304
129	0xbd1ed2d0	-0.038775265
130	0x3da7696a	0.08174403
131	0xbd3115bc	-0.04323362
132	0x3df5e1ae	0.120059356
133	0x3ddde162	0.10834004
134	0x3d0aca4c	0.03388433
135	0xbc159be0	-0.009131402
136	0x3d5a4d24	0.053296223
137	0x3dfb0a68	0.12257844
138	0xbd876ab6	-0.0661215
139	0xbbdb0740	-0.006684214
140	0x3c8e3e58	0.017363712
141	0xbd778ce0	-0.060437083
142	0xbdd9c2a0	-0.10632825
143	0x3db4ebe2	0.088340536
144	0xbdfeadc6	-0.124354884
145	0x3df2fab4	0.11864224
146	0xbd6af3b8	-0.057361335
147	0x3d147070	0.03624004
148	0xba884b80	-0.0010398477
149	0x3c901420	0.017587721
150	0xbd9bca82	-0.07606985
151	0x3d40e204	0.047090545
152	0xbdd5392c	-0.10411295
153	0xbc6ba800	-0.014383316
154	0xbd655c1c	-0.055996045
155	0xbd70114c	-0.058610246
156	0x3d510e60	0.0510391
157	0x3dd6027c	0.104496926
158	0xbdbf2a7e	-0.093342766
159	0x3be3c7e0	0.006951317
160	0x3d8fdbb2	0.070243254
161	0xbd800ea6	-0.06252794
162	0x3df91050	0.121613145
163	0xbd8d09f8	-0.06886667
164	0xbd1eba20	-0.03875172
165	0xbc9f1990	-0.019421369
166	0xbc1f87b0	-0.00973694
167	0x3b9072c0	0.0044082105
168	0xbd94f386	-0.07273011
169	0x3d9970c2	0.0749221
170	0x3c4aded0	0.012382224
171	0xbbf96be0	-0.0076117367
172	0xbc563400	-0.013073921
173	0x3deb7f8e	0.114989385
174	0x3d818d02	0.06325723
175	0x3d9606de	0.073255286
176	0x3d5bc56c	0.053655073
177	0xbc101550	-0.008794144
178	0x3d1820fc	0.03714083
179	0xbde4c8d4	-0.111711174
180	0x3cc5f440	0.024164319
181	0xbcdc75c8	-0.026911631
182	0xbda18404	-0.07886508
183	0xbd1326c4	-0.03592564
184	0x3c5bd5c0	0.013417661
185	0x3df1b68e	0.11802398
186	0xbd228bd4	-0.03968413
187	0xbd06fa84	-0.032953754
188	0xbcf6c438	-0.030122861
189	0xbd838f30	-0.06423795
190	0xbdbdad2c	-0.092615455
191	0xbd8e82fc	-0.06958577
192	0xbda88e58	-0.08230275
193	0xbd0d5364	-0.034503356
194	0xbdfffb9c	-0.124991626
195	0xbd089030	-0.033340633
196	0x3ddc60e2	0.107606664
197	0x3d969d9c	0.0735428
198	0x3cc57ec0	0.02410829
199	0xbdb91cdc	-0.090387076
200	0xbd319d58	-0.043362945
201	0xbd583e3c	-0.052793726
202	0xbcaa5eb0	-0.020797104
203	0x3cc772c8	0.024346724
204	0xbd816cc2	-0.06319572
205	0xbdefb4b0	-0.11704385
206	0x3de0cde8	0.109767735
207	0xbd8c1840	-0.06840563
208	0xbd5bf91c	-0.053704366
209	0x3d8b73c4	0.0680919
210	0x3c49e8a0	0.0123235285
211	0x3d9e048a	0.077157095
212	0x3c9380a0	0.01800567
213	0xbc0bcfb0	-0.008533403
214	0xbcb5f710	-0.022212535
215	0x3dff8976	0.124773905
216	0xbd5424a4	-0.051792756
217	0x3d9c3478	0.07627195
218	0x3cb69540	0.022287965
219	0x3c042a40	0.008066714
220	0xbcb7b968	-0.022427276
221	0xbd821c04	-0.06353
222	0x3cd24a28	0.025670126
223	0x3d905b6a	0.07048686
224	0x3bae5d00	0.005321145
225	0x3dfc769c	0.123273104
226	0xbdfa69f0	-0.12227237
227	0x3cbc6268	0.022996143
228	0x3d7deb48	0.06199196
229	0x3bb6bea0	0.0055769235
230	0xbd6390c4	-0.05555798
231	0x3c4ee980	0.012628913
232	0xbdebe164	-0.11517599
233	0xbddc8612	-0.107677594
234	0x3dcd1056	0.100128815
235	0xbdb3d46c	-0.08780751
236	0xbc8d6e10	-0.017264396
237	0x3d29dfcc	0.041473195
238	0x3cdd5000	0.027015686
239	0x3dd9f368	0.10642129
240	0xbc9ebfe8	-0.019378617
241	0xbd4daf24	-0.050215855
242	0xbdbc3832	-0.09190406
243	0xbd9cfec2	-0.07665779
244	0xbbd59580	-0.006518066
245	0x3dca0294	0.09863773
246	0x3bdaad40	0.006673485
247	0xbda56b74	-0.08077136
248	0xbd28d000	-0.04121399
249	0xbd042298	-0.032259554
250	0xbdbe2fea	-0.09286483
251	0xbdffe0fe	-0.12494086
252	0xbd8bca7e	-0.06825732
253	0x3ca90418	0.020631835
254	0x3d9a8346	0.0754457
255	0xbd713d44	-0.058896318

network.2.bias f4 [64]
0	0xbdbbd720	-0.09171891
1	0xbd504d34	-0.050854877
2	0xbccbbc68	-0.024870113
3	0xbc8ac458	-0.016939327
4	0x3da91c26	0.08257322
5	0x3da43a01	0.08018876
6	0x3dd25209	0.10269553
7	0xbdf12d0e	-0.117761716
8	0x3db75c4a	0.089531496
9	0xbcf72f1d	-0.030173833
10	0x3cf6ef90	0.03014353
11	0x3cb42a10	0.021992713
12	0xbe04b1e8	-0.12958491
13	0xbdaf71ec	-0.08566651
14	0x3cef5c2c	0.029218756
15	0xbdbd594f	-0.0924555
16	0xbdc6a116	-0.096986935
17	0xbc9dcd28	-0.019262865
18	0xbcb661c0	-0.022263408
19	0x3dc72c65	0.097252645
20	0x3deb5820	0.11491418
21	0xbcf5bdd8	-0.029997751
22	0x3d610408	0.054935485
23	0xbd897422	-0.06711604
24	0x3d1b0e6e	0.037855558
25	0x3d6f572f	0.058432754
26	0xbd562504	-0.052281395
27	0xbde235d6	-0.11045425
28	0x3a12a700	0.0005594343
29	0x3d812459	0.06305761
30	0xbdb77d42	-0.08959438
31	0x3d87f9dd	0.066394545
32	0xbd1b806c	-0.03796427
33	0xbda27f28	-0.079344094
34	0xbdd8ca72	-0.105854884
35	0xbd83c56f	-0.06434142
36	0xbd59c120	-0.053162694
37	0xbb8db920	-0.004325047
38	0x3cd53a53	0.026028788
39	0x3dd68f33	0.10476532
40	0x3dcd53a5	0.100257196
41	0xbc2bfad0	-0.01049681
42	0xbd7091d4	-0.058732823
43	0x3df85aa5	0.12126664
44	0xbdf8a89c	-0.12141535
45	0x3d0a2134	0.03372307
46	0xbd1d6db4	-0.0384347
47	0x3c365731	0.0111291865
48	0xbdc0ba86	-0.094105765
49	0xbbf431b8	-0.007452216
50	0x3d49cad0	0.049265683
51	0x3ccf52e8	0.025308087
52	0x3df40dc8	0.11916691
53	0x3cc510d8	0.024055883
54	0x3c076190	0.008263007
55	0x3ba33abe	0.004981368
56	0x3c1f4f50	0.009723499
57	0xbdea5b04	-0.11443141
58	0xbced22bd	-0.028947229
59	0xbdad8a00	-0.08473587
60	0x3cfb7d00	0.030699253
61	0xbd88449e	-0.06653713
62	0xbda67556	-0.08127849
63	0xbdfce13e	-0.12347649

network.4.weight f4 [6, 64]
0	0x3dc48c4c	0.09597072
1	0xbc242aa0	-0.010019928
2	0x3d3ef0d8	0.046616405
3	0xbdc92eac	-0.09823355
4	0x3dc34592	0.09534754
5	0x3d10f6d0	0.03539163
6	0xbd81b61d	-0.063335635
7	0x3d9a2d04	0.07528117
8	0xbbe38ae0	-0.0069440454
9	0xbdd7c142	-0.10534908
10	0x3dfa73de	0.12229131
11	0x3cb06da0	0.021536648
12	0x3d928f8e	0.07156287
13	0xbd3208fe	-0.043465607
14	0xbd6e42b4	-0.05816908
15	0xbde6654d	-0.1124979
16	0x3c4fcfd0	0.012683824
17	0x3ccb3198	0.024803922
18	0xbdc8f5d8	-0.09812516
19	0xbd5f0a45	-0.054453153
20	0xbdc51f0a	-0.09625061
21	0x3dc2a24e	0.095036134
22	0x3c878a14	0.016545333
23	0x3df0e180	0.11761761
24	0x3d4c4321	0.049868707
25	0x3dc7c45f	0.09754252
26	0x3dca4514	0.09876457
27	0x3bfbaea0	0.007680729
28	0x3df22a5c	0.11824486
29	0xbd1350a3	-0.035965573
30	0xbd9f28a4	-0.077714235
31	0xbdbc6070	-0.091980815
32	0xbcb71810	-0.022350341
33	0xbdfae796	-0.12251203
34	0xbd920afa	-0.07131
35	0x3d31fd51	0.043454472
36	0x3cbed740	0.023295999
37	0xbd969596	-0.0735275
38	0xbdae0d61	-0.084986456
39	0xbdc043c0	-0.09387922
40	0xbd2ebd38	-0.04266092
41	0xbbf7bec0	-0.007560581
42	0x3ce35990	0.027752668
43	0xbd3bd8f9	-0.045861218
44	0xba2f9900	-0.0006698519
45	0x3cf9687e	0.030445334
46	0x3cc13540	0.023584962
47	0xbdf09a84	-0.117482215
48	0xbd6bd8f0	-0.057579935
49	0xbd9b8c2b	-0.07595094
50	0x3dfd4694	0.12366977
51	0x3daafef0	0.08349407
52	0x3cb58e60	0.022162616
53	0xbd812368	-0.06305581
54	0xbc874680	-0.01651311
55	0x3d4a99cc	0.04946308
56	0xbdab1044	-0.08352712
57	0xbba959a0	-0.005168155
58	0xbc07f9d4	-0.00829931
59	0x3cebc0b0	0.028778404
60	0x3dd0136a	0.10159953
61	0xbdcecf16	-0.10098092
62	0xbdc3db8a	-0.09563358
63	0x3dde406e	0.10852133
64	0x3d85b714	0.0652906
65	0x3d9cc960	0.07655597
66	0x3cfcdce0	0.03086704
67	0x3c043020	0.0080681145
68	0x3cc8e145	0.02452148
69	0xbd9cdc6a	-0.07659228
70	0x3cfd31f2	0.030907605
71	0x3d990068	0.074707806
72	0x3d7e38d8	0.06206593
73	0x3d39fd8f	0.045407828
74	0x3df3114e	0.11868535
75	0x3dcbfb1e	0.09960006
76	0x3db5615d	0.08856461
77	0x3de112d6	0.10989921
78	0x3d38f107	0.045151737
79	0x3cb4f3b3	0.022088861
80	0x3d0b8b60	0.034068465
81	0x3db0e24e	0.08636914
82	0xbc9b4c48	-0.018957272
83	0xbd913614	-0.07090393
84	0x3d9c1ab9	0.076222844
85	0xbd8cc480	-0.06873417
86	0x3dde31d2	0.10849346
87	0xbdcad818	-0.09904498
88	0x3cf7f96b	0.030270299
89	0x3d493981	0.049127106
90	0x3ceb6538	0.028734788
91	0xbd7a9c5c	-0.061184272
92	0x3d84013a	0.064455464
93	0x3cffedd5	0.031241337
94	0x3dd577a2	0.10423209
95	0x3adc0130	0.0016785022
96	0x3d0ce490	0.03439766
97	0x3df04ef0	0.11733806
98	0x3da04f82	0.07827665
99	0x3dc7a408	0.09748083
100	0xbcd60dd0	-0.026129633
101	0x3d6fbc48	0.05852917
102	0x3dcd20fe	0.100160584
103	0x3dda3cc0	0.106561184
104	0x3d910026	0.070801064
105	0x3d91e690	0.071240544
106	0xbbc18bc0	-0.005906552
107	0xbde2f5cf	-0.110820405
108	0xbd81fe74	-0.06347361
109	0x3d8b2bc0	0.06795454
110	0xbd65bebc	-0.0560901
111	0xbddc82ac	-0.10767111
112	0xbdca3016	-0.09872453
113	0x3dc8503e	0.0978093
114	0xbc30b190	-0.010784522
115	0xbdc7ee06	-0.09762196
116	0xbdc4baae	-0.09605919
117	0x3d5ef0dc	0.05442892
118	0xbd384f58	-0.044997543
119	0x3d9882fb	0.074468575
120	0xbdd0ba6e	-0.10191809
121	0x3de6b0ae	0.11264168
122	0xbdf6186c	-0.12016377
123	0x3de2d47a	0.11075683
124	0xbcd52b90	-0.026021749
125	0x3d0fa278	0.03506705
126	0xbd9f7882	-0.07786657
127	0xba72f000	-0.000926733
128	0x3cdb6c98	0.02678518
129	0xbdb57a84	-0.088612586
130	0x3db713ec	0.08939347
131	0x3df25a2e	0.11833607
132	0x3da12373	0.078680895
133	0xbd4de17b	-0.050263863
134	0x3d2cfc81	0.042232994
135	0x3dbf6538	0.09345478
136	0x3ddcee3e	0.107876286
137	0xbdc0027e	-0.09375475
138	0x3d57bb38	0.05266878
139	0x3d831488	0.064004004
140	0xbd65ea65	-0.05613174
141	0xbdb1b24d	-0.08676586
142	0x3db63e35	0.08898584
143	0x3c31e071	0.010856734
144	0x3d65d4e0	0.056111217
145	0x3dca600e	0.09881602
146	0x3d09db08	0.03365615
147	0xbd87728e	-0.066136464
148	0x3df14b8b	0.11781987
149	0xbdebbdaa	-0.11510785
150	0xbda94e00	-0.082668304
151	0xbb15e680	-0.0022872984
152	0xbda090bf	-0.07840108
153	0x3dafa4ab	0.0857633
154	0x3d84b952	0.064806595
155	0x3c4303f0	0.011902794
156	0xbd8132e8	-0.06308538
157	0xbc769181	-0.015049339
158	0xbcd244d0	-0.025667578
159	0xbd7f201a	-0.062286474
160	0x3d80bcf0	0.06286037
161	0xbcb9ae68	-0.022666171
162	0x3dac1d82	0.08404066
163	0x3d323034	0.043503
164	0x3da5077a	0.08058067
165	0x3d878e1a	0.066189006
166	0x3dc133c4	0.09433702
167	0x3deafd13	0.11474051
168	0x3dc5a3f0	0.09650409
169	0x3c8e8100	0.017395496
170	0xbd4822fc	-0.04886149
171	0x3d9de082	0.07708837
172	0xbdd95b28	-0.1061309
173	0x3d665168	0.05622998
174	0xbca535d8	-0.020167276
175	0x3cc1f3fb	0.02367591
176	0x3d564944	0.052315965
177	0xbd49f6a1	-0.04930747
178	0xbdf4cc74	-0.11953059
179	0xbd40a830	-0.047035396
180	0xbc8a20c8	-0.016861334
181	0xbc18f140	-0.009334862
182	0xbd200c14	-0.03907402
183	0xbde91c37	-0.11382335
184	0xbca60180	-0.020264387
185	0xbb0476c0	-0.0020212382
186	0xbb9fae76	-0.0048730923
187	0x3de52eca	0.11190565
188	0xbd8139de	-0.063098654
189	0xbd0d6a90	-0.034525454
190	0x3dadfebc	0.08495852
191	0xbdca9586	-0.098918006
192	0xbcfc10d0	-0.030769736
193	0xbcd76bd0	-0.026296526
194	0xbcfb3060	-0.030662715
195	0x3d55ce38	0.05219862
196	0x3d47f1c8	0.048814565
197	0x3dc04df7	0.093898706
198	0x3de6b79a	0.11265488
199	0x3d082fa8	0.033248574
200	0x3da81adc	0.08208248
201	0x3d4821be	0.048860304
202	0xbdab1930	-0.083544135
203	0x3d92a684	0.071606666
204	0xbdb7185c	-0.08940193
205	0x3d99ae1c	0.07503912
206	0x3d4c8e57	0.049940433
207	0x3dd5db5e	0.104422316
208	0xbca07338	-0.01958619
209	0x3ce45550	0.027872711
210	0x3daaaa02	0.08333208
211	0xbcacdd29	-0.021101551
212	0x3df8da88	0.121510565
213	0xbb3a6539	-0.002844168
214	0xbdbf65b0	-0.09345567
215	0x3ccc1c40	0.024915814
216	0xbd112dc1	-0.035444025
217	0xbdcdb54f	-0.100443475
218	0x3d1a4880	0.037666798
219	0x3dc81138	0.09768909
220	0x3d4ddd0c	0.050259635
221	0x3d554a32	0.05207271
222	0xbd5914ac	-0.05299823
223	0xbdc0f49f	-0.09421658
224	0xbd7e3310	-0.062060416
225	0x3d6a98d0	0.05727464
226	0xbd8ded92	-0.069300786
227	0x3da16c02	0.07881929
228	0x3cde5c78	0.027143702
229	0xbdfd6a26	-0.12373762
230	0xbd9afb70	-0.07567489
231	0x3cd56a59	0.026051687
232	0xbd916453	-0.070992135
233	0x3db8d938	0.09025806
234	0xbc82e570	-0.015978545
235	0xbd18684f	-0.03720885
236	0xbddfb03e	-0.109222874
237	0xbd083c68	-0.033260733
238	0xbd8f93ce	-0.070106134
239	0xbdd9da92	-0.10637392
240	0x3aa73a80	0.0012758523
241	0x3cbfd5f2	0.023417447
242	0xbdb1bd18	-0.08678645
243	0xbdf7ac4a	-0.120934084
244	0xbdd4617a	-0.10370155
245	0xbcd8a300	-0.026444912
246	0xbdfe861a	-0.124279216
247	0x3d3b3e21	0.045713548
248	0xbdb8e8ac	-0.09028754
249	0x3d863cd6	0.06554572
250	0xbbb0b407	-0.0053925547
251	0xbd902556	-0.07038371
252	0x3da258c8	0.0792709
253	0x3da278b8	0.079331815
254	0x3dd34295	0.10315434
255	0xbdce007e	-0.100586876

network.4.bias f4 [6]
0	0xbdce0aa7	-0.100606255
1	0xbdd652e8	-0.10465032
2	0x3e047e33	0.12938766
3	0xbdc4f216	-0.09616487
4	0xbd949d1d	-0.072565295
5	0x3ce740c6	0.028229129
